Domain_Adaptation/trained_models/adda.pt (torch, 92636 bytes, 8 tensors)

feature_extractor.0.weight f4 [10, 3, 5, 5]
0	0xbd3ad4a9	-0.045612965
1	0xbebd0c30	-0.3692336
2	0xbde2f9e0	-0.11082816
3	0xbd6a61f4	-0.05722232
4	0xbe0d7392	-0.13813618
5	0x3e1366fb	0.14394753
6	0x3e183099	0.14862289
7	0xbea7e092	-0.3278852
8	0xbea5932a	-0.3233884
9	0xbe476ff3	-0.19476299
10	0x3e22cd79	0.15898694
11	0x3e50d079	0.20392026
12	0x3eb9a61a	0.36259538
13	0x3dc3d8a8	0.09562808
14	0xbc8f8bc5	-0.017522702
15	0x3dc15bb2	0.094413176
16	0x3d824d7f	0.063624375
17	0x3d5b1a37	0.053491797
18	0x3dd30f1f	0.103056185
19	0x3cb362b6	0.021897655
20	0xbd6bb014	-0.057540968
21	0x3d002d8d	0.03129344
22	0xbd7119b0	-0.058862388
23	0x3dc1ae5e	0.09457086
24	0x3cb9211b	0.022598794
25	0x3b8e0425	0.00433399
26	0xbc899536	-0.016794782
27	0x3e41e759	0.18935908
28	0x3e2ffa62	0.17185357
29	0x3e4c20b3	0.19934349
30	0xbac86f52	-0.0015291965
31	0x3d35d81e	0.04439556
32	0xbe029bae	-0.127547
33	0x3e1368a8	0.14395392
34	0xb8db0718	-0.00010444055
35	0xbdb3a12a	-0.08770974
36	0xbd31a4a8	-0.04336992
37	0xbdd63b8d	-0.10460577
38	0xbd47a134	-0.04873772
39	0xbc805685	-0.015666256
40	0xbd85a016	-0.065246746
41	0xbdf3a7fc	-0.11897275
42	0xbd8f149d	-0.069863535
43	0xbdc69209	-0.09695823
44	0x3c68df02	0.014213325
45	0xbac20438	-0.0014802283
46	0x3c149570	0.009068832
47	0xbaf436cd	-0.0018632055
48	0xbdac67fa	-0.084182695
49	0xbae679c1	-0.0017583893
50	0x3d239eb1	0.03994626
51	0xbd68cc55	-0.05683549
52	0x3e00ccaf	0.1257808
53	0x3dd95904	0.106126815
54	0x3d847bbd	0.06468914
55	0xbd60d7d5	-0.054893333
56	0xbd9db153	-0.076998375
57	0xbe801f19	-0.25023726
58	0xbe465ece	-0.19372103
59	0xbdbd7ebe	-0.0925269
60	0xba905766	-0.0011012375
61	0xbcb877ca	-0.022518057
62	0x3d44b8b1	0.048027698
63	0x3dc934d5	0.0982453
64	0x3cde5933	0.027142143
65	0x3d2a4bb7	0.041576114
66	0x3da54e71	0.08071602
67	0xbc20dae1	-0.00981781
68	0xbc139521	-0.009007723
69	0xbcab8ec1	-0.020942094
70	0x3d5f4c30	0.054516017
71	0xbd5a72d8	-0.05333218
72	0x3cf5c876	0.030002814
73	0x3c81b670	0.015834063
74	0xbd179029	-0.037002716
75	0xbb82012b	-0.0039674244
76	0x3cffa6f3	0.031207537
77	0x3cf31829	0.029674606
78	0x3d785be2	0.0606345
79	0x3d0f88ac	0.03504245
80	0x3dd127e7	0.10212689
81	0x3d951cac	0.07280859
82	0x3e06f4f9	0.13179387
83	0x3d2d7fd6	0.042358242
84	0x3df26dda	0.11837359
85	0x3cd6a564	0.026201911
86	0x3c495812	0.012289064
87	0x3d76a062	0.060211547
88	0x3cd07abe	0.025449153
89	0x3dc41a84	0.0957537
90	0xbe00244d	-0.12513848
91	0xbcbefbec	-0.023313485
92	0xbdb461df	-0.0880773
93	0xbb458a91	-0.0030142406
94	0x3e85ca96	0.26131123
95	0xbe6f0bba	-0.23344317
96	0xbe2feb82	-0.17179683
97	0xbe0b800d	-0.13623066
98	0xbe9c0af7	-0.30477116
99	0x3ea744b9	0.3266962
100	0x3cd6eb1a	0.026235152
101	0xbd57505c	-0.05256687
102	0xbe131047	-0.14361678
103	0xbd4288fb	-0.047493916
104	0xbdb6f2aa	-0.08933003
105	0xbd51762e	-0.051138096
106	0xbd58d72a	-0.05293957
107	0xbd7a4012	-0.06109626
108	0xbd5b6342	-0.053561457
109	0xbcb36fff	-0.02190399
110	0xbcb34610	-0.021883994
111	0xbcfe0dd7	-0.031012459
112	0xbd31913d	-0.0433514
113	0xbc67e0e0	-0.0141527355
114	0xbdb456b0	-0.08805597
115	0x3d884a77	0.06654828
116	0x3abaf2af	0.0014262999
117	0xb98b245e	-0.00026539242
118	0xbdee18e7	-0.116258435
119	0xbda6c88c	-0.0814372
120	0x3e663d7f	0.22484396
121	0x3e652995	0.22379144
122	0x3e5a198f	0.21298812
123	0xbe9acf05	-0.30236068
124	0xbd46da46	-0.048548006
125	0x398826b7	0.00025968786
126	0x3cd6c67a	0.026217688
127	0x3dc99814	0.0984346
128	0xbcccdf66	-0.025008868
129	0x3d5b5f94	0.053557947
130	0xbd070b7e	-0.032969944
131	0xbcae5907	-0.021282686
132	0xbc917e25	-0.017760346
133	0x3d6ef00b	0.05833439
134	0xbd73bcbc	-0.059506163
135	0xbbc28f29	-0.005937476
136	0x3d3fa41a	0.04678736
137	0x3c860f19	0.016364621
138	0x3d38277d	0.044959534
139	0x3ca73326	0.020410132
140	0xbc8e4df4	-0.017371155
141	0xbc602ee6	-0.013683056
142	0x3d78b112	0.060715742
143	0xbd882561	-0.066477545
144	0x3c7a3831	0.015272186
145	0xbcb3e47a	-0.021959532
146	0xbd79311e	-0.060837857
147	0x3e015f5f	0.12634037
148	0xbe519ea0	-0.20470667
149	0x3db5178c	0.08842382
150	0xbe9ce755	-0.30645242
151	0xbe6e4193	-0.23267202
152	0xbe60460c	-0.21901721
153	0xbe405df8	-0.18785846
154	0xbba6b80a	-0.005087857
155	0xbe23589f	-0.15951775
156	0xbd8a63e4	-0.06757334
157	0xbd34e99f	-0.04416811
158	0x3e39cbe7	0.18144189
159	0x3e597e83	0.21239667
160	0x3c199e52	0.009376125
161	0x3d96670c	0.073438734
162	0x3e4db1f7	0.2008742
163	0x3db2c960	0.087298155
164	0x3e543284	0.20722395
165	0x3ebe7656	0.37199658
166	0x3e2dcab0	0.1697185
167	0x3dc6cb42	0.09706737
168	0x3d9667fa	0.07344051
169	0x3e4117b4	0.18856698
170	0x3e588349	0.21143831
171	0xbd35e8d9	-0.044411514
172	0xbdec000d	-0.11523447
173	0xbdcfce17	-0.101467304
174	0xbc692ab0	-0.014231369
175	0x3e101bc1	0.14073087
176	0x3eb3b2b9	0.35097292
177	0x3e12dcb4	0.14342004
178	0xbd520bd8	-0.051280826
179	0xbd2126de	-0.039343707
180	0x3db8bb2c	0.09020075
181	0x3d2f75c2	0.042836912
182	0xbd0b7fc4	-0.034057394
183	0xbd23e440	-0.040012598
184	0x3c315e7d	0.01082575
185	0xbe57c479	-0.21071042
186	0xbe0f7544	-0.14009577
187	0xbd740532	-0.059575267
188	0xbe0fb043	-0.14032082
189	0xbe457d5f	-0.19286107
190	0xbe895369	-0.2682145
191	0xbdaf3129	-0.085542984
192	0xbc84b5cb	-0.016199967
193	0xbd8d39b3	-0.06895771
194	0x3c3ccde4	0.0115236975
195	0xbe39fa4f	-0.18161891
196	0xbd79cd37	-0.060986724
197	0x3d506123	0.050873887
198	0xbd843632	-0.064556494
199	0xbd4fd06a	-0.05073587
200	0x3c37adef	0.011210903
201	0xbcd424ef	-0.025896518
202	0x3bc74f4f	0.0060824524
203	0xbd958867	-0.07301407
204	0x3c569e21	0.013099224
205	0xbc6a2815	-0.014291783
206	0xbe169eee	-0.14709064
207	0xbd2bd6e8	-0.041952997
208	0x3d8cf86e	0.06883322
209	0xbd343e11	-0.044004504
210	0xbd43134f	-0.047625836
211	0xbcb7ddd1	-0.022444637
212	0x3d0d3598	0.03447494
213	0xbc4c2826	-0.012460744
214	0xbd66ccc8	-0.05634764
215	0x3d5cbb40	0.053889513
216	0x3da02099	0.078187175
217	0xbd417b6c	-0.047236845
218	0x3d88cafc	0.06679341
219	0x3cdf0607	0.027224554
220	0xbd300bca	-0.042979993
221	0x3db63b50	0.08898032
222	0x3c77a412	0.015114801
223	0x3ddcbd4b	0.10778292
224	0x3c30c5aa	0.010789314
225	0xbf091c9f	-0.535593
226	0x3ea8a230	0.3293624
227	0x3e85b6b0	0.26115942
228	0x3e383f48	0.1799289
229	0xbd8bfb55	-0.06835047
230	0xbdaaf18b	-0.08346852
231	0x3db0dde0	0.08636069
232	0x3de04944	0.10951474
233	0xbd8e82b1	-0.06958521
234	0xbe2211f5	-0.15827163
235	0x3c9b9586	0.018992197
236	0x3d180ab6	0.03711959
237	0xbc800738	-0.015628442
238	0xbdbeeeae	-0.09322868
239	0x3a9859cd	0.0011623442
240	0xbbe78f7d	-0.0070666657
241	0x3a466520	0.00075681694
242	0xbc663873	-0.0140515445
243	0xbb852f6b	-0.0040644906
244	0xbd87bba8	-0.066275895
245	0x3e24ad1b	0.1608166
246	0x3db299f8	0.087207735
247	0x3d244cc5	0.040112276
248	0x3d00232c	0.031283543
249	0x3c62d515	0.013844748
250	0xbe27e68c	-0.1639654
251	0x3d8728df	0.065995924
252	0xbe384350	-0.17994428
253	0xbe05132f	-0.12995599
254	0x3cb713c5	0.022348294
255	0x3d29de00	0.04147148

feature_extractor.0.bias f4 [10]
0	0xbd32e913	-0.04367931
1	0xbd901f40	-0.070372105
2	0xbe5333b5	-0.20625193
3	0xbcb16dc3	-0.021658784
4	0xbd0793f7	-0.033100095
5	0xbd96b80c	-0.07359323
6	0x3ca7c0a4	0.0204776
7	0xbee6d7b3	-0.4508644
8	0xbeb0113b	-0.34388146
9	0xbd6efdb6	-0.058347426

feature_extractor.3.weight f4 [20, 10, 5, 5]
0	0xbdf35fa2	-0.11883475
1	0xbd665342	-0.056231745
2	0x3e18dfbd	0.149291
3	0x3d9ab1a0	0.075534105
4	0xbe0611f2	-0.13092783
5	0x3db3209b	0.087464534
6	0x3d91cd33	0.07119217
7	0xbdd4c4a1	-0.103890665
8	0xbe053a3f	-0.130105
9	0xbe892ff5	-0.267944
10	0xbe3e975e	-0.1861243
11	0xbc121fd5	-0.008918722
12	0xbe11d73d	-0.14242263
13	0xbc8c685d	-0.017139608
14	0x3d9e3f65	0.07726935
15	0xbea58add	-0.32332507
16	0xbda68698	-0.081311405
17	0xbb93985c	-0.0045042466
18	0x3e288753	0.16457872
19	0xbe195388	-0.14973271
20	0x3c01b09b	0.007915641
21	0xbd305807	-0.0430527
22	0x3d3730a8	0.044724137
23	0x3e394724	0.18093544
24	0x3d4513b5	0.048114497
25	0x3d5b9a80	0.05361414
26	0x3ca33e96	0.019927304
27	0x3cb6feb6	0.022338253
28	0x3e5348cb	0.20633237
29	0x3cc279f4	0.023739792
30	0x3e34ddfd	0.17662807
31	0x3d8a8989	0.06764514
32	0xbdab5319	-0.08365459
33	0xbc54413b	-0.012955005
34	0x3d06c3d8	0.032901615
35	0xbd425e65	-0.047453303
36	0x3d70bf36	0.058776103
37	0x3d8a5b06	0.067556426
38	0x3d7bc2f0	0.061465204
39	0x3db3f4e3	0.08786943
40	0xbc22f013	-0.0099449335
41	0x3d99ed1a	0.07515927
42	0xbbcfd293	-0.006342241
43	0xbe24d171	-0.1609552
44	0xbdd24dad	-0.10268722
45	0xbe9a5e8e	-0.30150265
46	0xbe2a238a	-0.1661512
47	0xbdd200f4	-0.10254088
48	0xbe279c3b	-0.16368191
49	0xbedbb5f5	-0.4291226
50	0xbe0f3dab	-0.13988368
51	0xbe0a718c	-0.13519877
52	0xbdfc172f	-0.123091094
53	0x3d982203	0.07428362
54	0x3ef4f0e5	0.47840038
55	0xbe508afe	-0.20365521
56	0xba62040a	-0.00086218177
57	0xbde5d4e0	-0.11222243
58	0xbe54c29e	-0.20777366
59	0xbe901860	-0.28143597
60	0xbe48e83a	-0.19619837
61	0x3dba417b	0.09094521
62	0xba98d886	-0.0011661209
63	0xbe556b93	-0.20841818
64	0xbe3e3d58	-0.18578088
65	0xbe3ec8bf	-0.18631266
66	0xbc2e7806	-0.010648733
67	0xbdfe19ce	-0.124072656
68	0xbe84dd81	-0.25950244
69	0xbc69fd29	-0.0142815495
70	0x3dc2ba30	0.09508169
71	0x3e32d382	0.17463496
72	0x3e23c813	0.15994291
73	0xbb29ccd4	-0.002590944
74	0xbdead5e8	-0.11466581
75	0xbe1c634c	-0.15272254
76	0x3e3d9820	0.18515062
77	0x3ea074c1	0.31339076
78	0x3f05d5c1	0.5227929
79	0x3f48fc3b	0.78509873
80	0xbde98453	-0.11402192
81	0xbe32f9d6	-0.17478117
82	0xbd8bf11e	-0.06833099
83	0x3da83068	0.08212358
84	0x3c8ec9c4	0.017430194
85	0xbd845481	-0.0646143
86	0xbe0ce4cc	-0.13759154
87	0xbe02242a	-0.12709108
88	0xbdd1cebb	-0.10244509
89	0xbe08fd28	-0.13377821
90	0xba88f0ca	-0.0010447737
91	0xbdae090e	-0.08497821
92	0xbd5a0cf9	-0.053235028
93	0xbe352801	-0.17691042
94	0xbdfd174c	-0.12357959
95	0xbd8a4ad7	-0.06752556
96	0xbe2e5508	-0.17024624
97	0x3abf96c9	0.0014617081
98	0xbdf0f441	-0.11765338
99	0xbe200b82	-0.1562939
100	0xbe01aa40	-0.12662601
101	0xbd2eb710	-0.04265505
102	0x3d50e333	0.050997924
103	0x3ea99f74	0.33129466
104	0x3e170e79	0.14751615
105	0xbe131b1c	-0.1436581
106	0xbe0bc400	-0.13648987
107	0xba970c76	-0.0011524099
108	0xbc942094	-0.01808194
109	0x3e42e6e9	0.19033398
110	0xbe1abfdb	-0.1511225
111	0xbcbab15b	-0.022789648
112	0xbc7e2c2b	-0.01551346
113	0xbca35911	-0.019939931
114	0x3e298adb	0.16556875
115	0xbd8cf7ae	-0.06883179
116	0x3cc8bd7e	0.02450442
117	0xbe1fff66	-0.1562477
118	0xbe26998d	-0.16269512
119	0x3cd77764	0.026302047
120	0xbd812caf	-0.06307351
121	0x3d508902	0.05091191
122	0x3d831b5b	0.06401702
123	0x3cbba125	0.022903988
124	0xbd327236	-0.04356595
125	0xbe870996	-0.263745
126	0xbda93d8f	-0.082636945
127	0x3dd60858	0.1045081
128	0x3e41f6ad	0.18941756
129	0x3e30dbc7	0.17271338
130	0x3e481be2	0.19541886
131	0x3d89d09c	0.06729242
132	0xbded626b	-0.11591037
133	0xbd122038	-0.035675257
134	0xbe5d0886	-0.21585283
135	0x3e1ee4d6	0.15516981
136	0x3ea82d25	0.32846943
137	0x3de8cbef	0.11367022
138	0xbd2dedfa	-0.04246328
139	0xbe393044	-0.18084818
140	0x3c2d29cb	0.010569046
141	0x3e7e9e07	0.2486497
142	0x3ddcd619	0.107830234
143	0x3cd6abbf	0.026204942
144	0xbe39723c	-0.18109983
145	0xbe223210	-0.1583941
146	0x3d437dde	0.04772746
147	0xbdb3e383	-0.08783629
148	0xbdd2c808	-0.10292059
149	0x3df9550a	0.12174423
150	0x3e2d9826	0.16952571
151	0x3d28b341	0.041186575
152	0xbc6c7c5d	-0.014433947
153	0x3c95ac7b	0.018270722
154	0x3dee876f	0.11646926
155	0xbda3753e	-0.079813465
156	0xbe0a6e08	-0.13518536
157	0xbe36c437	-0.17848288
158	0xbea6bd19	-0.32566145
159	0xbddd05e8	-0.10792142
160	0xbcda76a8	-0.026667908
161	0xbdc6a442	-0.096992984
162	0xbe11e085	-0.14245804
163	0xbe45ac7f	-0.19304083
164	0xbdecec4e	-0.11568509
165	0xbe0f3075	-0.13983329
166	0xbd9cab65	-0.076498784
167	0xbd1c6e33	-0.03819103
168	0xbbb5f082	-0.0055523524
169	0x3d8f8344	0.07007459
170	0x3c2e36f9	0.010633224
171	0xbcd35188	-0.025795713
172	0xbdce3cdb	-0.10070201
173	0x3e03449c	0.12819141
174	0x3e9a00f3	0.3007885
175	0xbd9a9aa9	-0.0754903
176	0xbda7e870	-0.08198631
177	0xbdb5e8ee	-0.088823184
178	0xbc50e90c	-0.012750875
179	0x3e4e6974	0.20157415
180	0xbe96aa90	-0.29427004
181	0x3c287b03	0.0102832345
182	0x3dfb585b	0.12272712
183	0x3df946ba	0.12171693
184	0x3ddd0d21	0.1079352
185	0xbe2b492d	-0.16727133
186	0xbb19fd5a	-0.0023496957
187	0x3e2406e6	0.16018257
188	0x3d5463bd	0.05185293
189	0x3d2ca628	0.042150646
190	0xbdf621d5	-0.12018172
191	0x3ce3a265	0.027787397
192	0x3d4488a4	0.047981873
193	0xbd4b35af	-0.049611744
194	0xbe63c45f	-0.22242878
195	0xbe548f1a	-0.20757714
196	0xbe2c0862	-0.16800073
197	0xbd9e469e	-0.07728313
198	0xbe014db5	-0.12627299
199	0x3e657140	0.22406483
200	0x3e72d201	0.23712923
201	0xbe0e627a	-0.13904753
202	0xbe18a31a	-0.14905968
203	0x387cd91b	6.0283677e-05
204	0x3c60b68a	0.013715396
205	0xbbc92a00	-0.00613904
206	0x3d3c5929	0.045983467
207	0xbc7131bc	-0.01472133
208	0x3d003e5a	0.031309463
209	0x3e04cd88	0.12969029
210	0xbd3994e8	-0.045308024
211	0xbd8b6f1b	-0.06808301
212	0x3d637cfb	0.055539113
213	0x3e2b659c	0.1673798
214	0xbe541323	-0.20710425
215	0xbe44fc90	-0.1923697
216	0xbd98d038	-0.074615896
217	0x3da7fa27	0.0820201
218	0x3e25cb3d	0.1619081
219	0xbd6dc65d	-0.058050502
220	0xbdc4d622	-0.09611155
221	0x3de79f72	0.11309709
222	0x3ec66ee4	0.38756478
223	0x3eab3009	0.33435085
224	0x3e2e9f84	0.17053038
225	0xbe6e83a4	-0.23292404
226	0xbd12b06d	-0.035812784
227	0x3e29a33a	0.16566172
228	0x3ec749cf	0.389235
229	0x3f2b9560	0.67024803
230	0xbb6be7c0	-0.0035996288
231	0x3d62fdc1	0.05541778
232	0x3cbe9b6d	0.023267472
233	0x3d8371ac	0.064181656
234	0xbcf734a2	-0.030176464
235	0x3e6c724f	0.2309048
236	0x3ce59f2d	0.028030002
237	0xbe10b05e	-0.14129779
238	0xbd812449	-0.06305749
239	0xbe83994c	-0.25702894
240	0x3dc71f4b	0.097227655
241	0x3d3b76a1	0.04576743
242	0xbe429901	-0.19003679
243	0xbdf53ea9	-0.11974842
244	0xbeeb5320	-0.45961857
245	0xbbec6dcd	-0.0072152377
246	0x3c964793	0.018344676
247	0xbded6d67	-0.115931325
248	0xbe1fd2d5	-0.1560777
249	0xbe6c6e89	-0.23089041
250	0xbd3ac384	-0.045596614
251	0xbd01e0b4	-0.031708434
252	0x3e168a8b	0.14701287
253	0xbd0ca074	-0.034332708
254	0xbe337d8e	-0.17528364
255	0xbdc8c7a3	-0.09803703

feature_extractor.3.bias f4 [20]
0	0xbc97b2df	-0.01851791
1	0xbc9a2a3b	-0.018818965
2	0xbd5ab2f3	-0.053393316
3	0x3e1afcdb	0.15135519
4	0xbd89cb84	-0.06728271
5	0xbe7184dd	-0.2358584
6	0x3e413bab	0.18870418
7	0x3e5f0877	0.21780573
8	0xbd6fc284	-0.058535114
9	0xbdde11e4	-0.10843256
10	0x3e0892e0	0.13337278
11	0xbe9ad052	-0.3023706
12	0xbe3714b6	-0.17878994
13	0xbdbe9f40	-0.09307718
14	0x3d2d00a7	0.04223695
15	0x3e39e80e	0.18154928
16	0xbd946ab4	-0.072469145
17	0xbdbede60	-0.093197584
18	0x3db5f476	0.08884518
19	0xbea94335	-0.33059087

classifier.0.weight f4 [50, 320]
0	0x3ddb9ff4	0.10723868
1	0x3cef873d	0.029239291
2	0x3e2d3d91	0.16918017
3	0xbc8bdb23	-0.017072266
4	0xbe0ac5c1	-0.13552
5	0xbabf1e8e	-0.001458125
6	0xbe153d82	-0.14574245
7	0xbcfc7c1f	-0.030820904
8	0xbdf8f80f	-0.121566884
9	0xbc5f0496	-0.013611933
10	0xbdbb1169	-0.0913418
11	0xbd454104	-0.048157707
12	0x3e1a87e1	0.15090896
13	0xbd14b0d9	-0.036301468
14	0xbde981a2	-0.114016786
15	0xbe46e330	-0.19422603
16	0x3d6bb4b9	0.057545397
17	0xbb9dfabc	-0.0048211496
18	0x3e108dcc	0.14116591
19	0x3d6c4f31	0.05769271
20	0x3dd4a95a	0.10383864
21	0xbc6462dd	-0.0139395865
22	0x3c863a47	0.01638521
23	0x3e06ff74	0.13183385
24	0xbde46f44	-0.11154035
25	0xbdadece3	-0.08492448
26	0x3d190cd2	0.037365742
27	0x3e102ea1	0.14080288
28	0xbd5edf02	-0.054411896
29	0x3d57027f	0.052492615
30	0xbd827efb	-0.06371876
31	0xbd4dedc4	-0.05027558
32	0xbd61bb04	-0.055109993
33	0xbde8f914	-0.11375633
34	0xbdc39ca3	-0.095513605
35	0x3e4ed3bc	0.20197958
36	0xba2b4700	-0.0006533712
37	0x3ce5e317	0.028062386
38	0x3d30746f	0.04307979
39	0xbda9fff0	-0.08300769
40	0x3e9bfe79	0.30467585
41	0xbccf1962	-0.025280658
42	0xbd03448d	-0.032047797
43	0xbd8b0eb0	-0.06789911
44	0xbbc950e9	-0.0061436784
45	0xbd0d29ce	-0.034463696
46	0x3de236af	0.11045586
47	0x3d6a4589	0.05719522
48	0x3d0e8e72	0.034803815
49	0x3c8efc8a	0.017454404
50	0x3be89542	0.007097871
51	0x3e0216f9	0.12704076
52	0x3c4cf973	0.012510645
53	0x3d1ff162	0.03904856
54	0x3dc6a31e	0.09699081
55	0x3d902b59	0.07039518
56	0x3cee9251	0.029122503
57	0xbe2bd66c	-0.16781014
58	0xbcd0fdbb	-0.025511613
59	0xbe176dc4	-0.14787966
60	0x3e0f5051	0.13995482
61	0xbd849aea	-0.0647486
62	0xbdef132b	-0.11673578
63	0xbc9da15a	-0.019241977
64	0xbd1458a2	-0.03621734
65	0x3d9ddfac	0.07708678
66	0xbc7528ff	-0.0149633875
67	0x3e3c3eb2	0.18383291
68	0x3d6f2365	0.058383364
69	0xbd3dd5e6	-0.046346568
70	0xbc38e7f2	-0.011285769
71	0x3c0a202d	0.008430523
72	0x3e5b1914	0.21396285
73	0xbd2ce62f	-0.042211708
74	0xbdc57b44	-0.09642652
75	0x3e1a1b57	0.15049492
76	0xbca34cc1	-0.01993406
77	0x3ccada8f	0.02476242
78	0xbe221ab0	-0.15830493
79	0xbe1dab8c	-0.15397471
80	0x3c901fb8	0.01759325
81	0x3c9cba88	0.019131914
82	0xbc7ed4e4	-0.015553687
83	0x3b8fad3e	0.0043846657
84	0x3e1ff073	0.15619068
85	0x3e205e15	0.1566089
86	0xbc81b53e	-0.015833493
87	0x3dc9815e	0.09839128
88	0xbd0ab78f	-0.03386646
89	0x3e13bdee	0.14427921
90	0xbdb7f926	-0.08983068
91	0x3d7bec0b	0.061504405
92	0x3c9bcbfe	0.01901817
93	0x3d3e70a6	0.04649415
94	0x3e26ac05	0.16276558
95	0x3e4b9094	0.19879371
96	0xbdca8e87	-0.09890466
97	0xbd2a6e6c	-0.041609213
98	0xbda23bcd	-0.07921562
99	0xbe72d106	-0.23712549
100	0xbdc5f8f6	-0.09666626
101	0xbe65fc76	-0.22459587
102	0x3c8390f8	0.016060337
103	0x3e1cf2ad	0.15326948
104	0x3e4b9be7	0.19883691
105	0xbe402eb1	-0.18767811
106	0xbdae5898	-0.08512992
107	0x3c1e0235	0.009644081
108	0x3e5687c8	0.20950234
109	0xbe326dcf	-0.17424701
110	0xbe145dff	-0.14488982
111	0x3b7435ce	0.0037263515
112	0xbd20474c	-0.039130494
113	0xbde01322	-0.10941149
114	0xbc35cbaa	-0.011095921
115	0xbd1c47b9	-0.038154338
116	0x3d01543f	0.031574484
117	0xbc704c32	-0.014666604
118	0x3e30d6c0	0.1726942
119	0x3d7b825d	0.06140362
120	0xbd322e67	-0.043501284
121	0xbdb90e04	-0.090358764
122	0x3e47f382	0.19526485
123	0x3df9838b	0.12183293
124	0xbe556922	-0.20840886
125	0xbe3967da	-0.18106022
126	0xbdafc091	-0.08581651
127	0xbe5be129	-0.2147261
128	0xbd16f8c0	-0.03685832
129	0x3d01dd10	0.031704962
130	0xbc50608f	-0.012718334
131	0x3e26473e	0.16238114
132	0x3dd9ffc0	0.106444836
133	0xbe2684c7	-0.16261588
134	0xbc1f475e	-0.009721605
135	0x3e173e9b	0.14769976
136	0xbdaa229a	-0.08307381
137	0x3780a00e	1.533332e-05
138	0x3d9dd3da	0.07706423
139	0x3d93b434	0.072121054
140	0x3e386a46	0.1800929
141	0xbb4ab71f	-0.0030931903
142	0xbd89d05f	-0.06729197
143	0x3ce8d9c7	0.028424157
144	0x3deb1a68	0.11479646
145	0x3df60363	0.12012365
146	0xbbe15a39	-0.0068772105
147	0xbb3c012d	-0.0028687224
148	0xbe06b034	-0.13153154
149	0xbe4939c4	-0.19650942
150	0xbb919d2d	-0.0044437856
151	0xbc66da58	-0.014090143
152	0x3d07b915	0.033135492
153	0xbe6b4d10	-0.22978616
154	0x3c772b16	0.015085956
155	0xbddbcba7	-0.10732203
156	0xbccb565d	-0.024821455
157	0x3ad0fa2f	0.0015943701
158	0xbdcff255	-0.10153643
159	0xbe167f80	-0.14697075
160	0x3e24614a	0.16052738
161	0x3d26164f	0.04054862
162	0x3dfff91b	0.12498685
163	0x3eacf428	0.33780026
164	0xbc953a72	-0.018216345
165	0xbe4bef8b	-0.19915597
166	0xbd500bf8	-0.050792664
167	0x3e449ee7	0.19201241
168	0xbe8a045c	-0.2695645
169	0xbe754518	-0.23952138
170	0xbc8f0b8d	-0.017461563
171	0xbd99c31f	-0.075079195
172	0x3e18749c	0.14888233
173	0x3be4738a	0.006971781
174	0xbd9d5c3b	-0.07683607
175	0xbe79480e	-0.24343893
176	0x3e0bbfd5	0.13647397
177	0x3e109bae	0.14121887
178	0xbe3f8265	-0.18702085
179	0x3ca6afa8	0.020347431
180	0x3dac8c4c	0.08425197
181	0x3d84180b	0.06449898
182	0xbd402a5f	-0.04691541
183	0xbdb72e28	-0.089443505
184	0xbd1cd02e	-0.038284473
185	0xbdec99f8	-0.11552805
186	0x3c57331b	0.013134743
187	0x3d1807e6	0.037116908
188	0x3e5155e3	0.2044292
189	0xbd174773	-0.036933374
190	0x3dad6a37	0.084675245
191	0xbd7d9ba2	-0.061916
192	0xbd57d25f	-0.05269086
193	0x3d5d5e81	0.054045204
194	0x3d583c8e	0.052792124
195	0xbdc2dc41	-0.09514666
196	0x3dfe6010	0.12420666
197	0x3e07e66d	0.13271494
198	0x3d1bbff7	0.03802487
199	0xbe3499c1	-0.17636777
200	0xbd040cca	-0.03223876
201	0xbdbcb7e7	-0.09214764
202	0x3ac8a868	0.0015308978
203	0x3de0f13c	0.10983512
204	0x3de3e3e1	0.11127449
205	0x3d9a86c8	0.07545239
206	0x3e1434de	0.14473292
207	0x3e31274e	0.1730015
208	0x3c890ed7	0.016730709
209	0xbd2da5f5	-0.042394597
210	0x3cd16b8b	0.025563976
211	0xbdccde42	-0.1000333
212	0xbd8ba06a	-0.06817706
213	0xbcdf6d34	-0.027273752
214	0xbdb01e8c	-0.08599576
215	0x3cc3eaa2	0.023915593
216	0x3e169788	0.14706242
217	0x3e0a16fa	0.13485327
218	0xbdcfc1fc	-0.101444215
219	0xbe303b6c	-0.17210168
220	0xbcc68c45	-0.024236808
221	0xbd9f82b2	-0.077886
222	0x3c74df24	0.014945779
223	0x3ddf0716	0.108900234
224	0xbd9e790e	-0.07737933
225	0xbd68ea2e	-0.056863956
226	0x3dab4a1d	0.08363745
227	0x3e118a1c	0.14212841
228	0x3dab7980	0.08372784
229	0xbe029a31	-0.12754132
230	0x3d86b10c	0.06576738
231	0x3ea2174d	0.31658402
232	0x3e0d5640	0.13802433
233	0xbbecccd6	-0.007226567
234	0xbe3843fd	-0.17994685
235	0x3b597489	0.0033181033
236	0x3ca1890d	0.019718671
237	0x3dda66fe	0.106641755
238	0xbcd9250b	-0.026506921
239	0x3e121da5	0.14269121
240	0xbc75b03d	-0.014995632
241	0xbdb5e8d2	-0.088822976
242	0xbe2ce6d6	-0.16884932
243	0xbe3d30f8	-0.18475711
244	0xbe3fbc5e	-0.187242
245	0xbd7ce820	-0.06174481
246	0xbe238786	-0.15969667
247	0x3d56e631	0.05246562
248	0x3e0b15ac	0.13582486
249	0x3db4f634	0.08836022
250	0x3e779353	0.24177293
251	0x3e1f1f09	0.15539183
252	0xbd745e29	-0.05966011
253	0xbe74d4ee	-0.23909351
254	0xbe6692e4	-0.22516972
255	0x3e1bab4a	0.1520206

classifier.0.bias f4 [50]
0	0x3e457101	0.19281389
1	0x3cc6c254	0.024262585
2	0x3e4214a2	0.18953183
3	0xbe5c5846	-0.21518049
4	0xbeaaf747	-0.33391783
5	0xbcd1f2b8	-0.025628433
6	0x3e56a151	0.20959975
7	0xbdb63356	-0.0889651
8	0xbe127b0a	-0.14304748
9	0x3e6efa00	0.23337555
10	0x3c7aeba0	0.015314966
11	0x3e4cbced	0.19993944
12	0x3e9571e2	0.29188448
13	0x3e644f0d	0.2229578
14	0xbe48a58b	-0.195944
15	0x3e812b36	0.2522828
16	0x3eaab753	0.3334299
17	0x3e97be04	0.29637158
18	0x3db5faf2	0.08885755
19	0xbe11a690	-0.14223695
20	0x3e65219d	0.22376104
21	0x3bc7ef81	0.006101549
22	0x3eeed80c	0.46649206
23	0x3dc730c5	0.09726099
24	0xbefa70fb	-0.48914322
25	0x3ea15906	0.31513232
26	0xbd5cc6b0	-0.05390042
27	0x3e9ed621	0.31022742
28	0x3bf63c9b	0.007514549
29	0x3e0238ad	0.12716933
30	0xbeb12d20	-0.3460474
31	0x3d8f58d0	0.069993615
32	0x3e939486	0.28824252
33	0xbd29efe3	-0.04148854
34	0x3e3ac2d7	0.18238388
35	0x3ca59747	0.020213736
36	0xbb00c883	-0.0019650764
37	0x3d493ccf	0.049130257
38	0x3f192a53	0.59830207
39	0xbca7cd70	-0.020483702
40	0x3e1184e3	0.14210849
41	0x3e874fb0	0.26427984
42	0x3e6e701d	0.23284955
43	0x3e3b6cc7	0.18303214
44	0xbd580974	-0.05274339
45	0x3d45abb2	0.048259445
46	0xbc9d5229	-0.019204216
47	0x3ea7b9d0	0.3275895
48	0xbe9056b6	-0.28191155
49	0x3e3ebe99	0.18627395

classifier.3.weight f4 [10, 50]
0	0xbe6987c1	-0.22805692
1	0x3dea93a6	0.11453943
2	0x3df6869d	0.12037394
3	0x3dc9d912	0.09855856
4	0xbe9ae264	-0.30250847
5	0xbe80adfa	-0.25132734
6	0xbea772c4	-0.32704747
7	0x3dd5fece	0.10448991
8	0x3d22bf46	0.039733194
9	0xbe85bc11	-0.26120046
10	0xbeb4b633	-0.35295257
11	0x3d950c1a	0.07277699
12	0xbe417467	-0.1889206
13	0x3e224d83	0.15849881
14	0xbe501b6a	-0.20322958
15	0x3d26cead	0.040724445
16	0x3db809a4	0.08986214
17	0xbde5966e	-0.11210333
18	0xbdfa596f	-0.12224089
19	0xbe899481	-0.26871112
20	0x3e25f110	0.1620524
21	0xbe98a7e3	-0.29815587
22	0xbebe2a0b	-0.3714145
23	0xbe72015f	-0.23633336
24	0xbe681a25	-0.22666223
25	0xbd1791f3	-0.037004422
26	0xbd1a47b5	-0.03766604
27	0xbe93382a	-0.28753787
28	0x3dc6224e	0.09674512
29	0x3e0c8e9e	0.13726279
30	0xbe700a06	-0.23441324
31	0xbe9a7907	-0.30170462
32	0xbe3a9f4c	-0.1822483
33	0xbe7fbef4	-0.24975187
34	0xbe7d176f	-0.2471597
35	0xbeb67607	-0.35636923
36	0xbea1eb1b	-0.31624684
37	0x3e0ab73b	0.1354646
38	0xbe64a45e	-0.22328326
39	0xbe4c5930	-0.19955897
40	0x3e2a7285	0.16645248
41	0xbdbbf751	-0.09178031
42	0x3ddd2cf2	0.10799588
43	0x3e16f22e	0.14740822
44	0xbe6be9b0	-0.23038363
45	0xbe07c755	-0.13259633
46	0xbe566436	-0.20936665
47	0xbdf1e1db	-0.11810657
48	0xbe52c309	-0.20582213
49	0x3e207568	0.15669787
50	0xbcd1aa8a	-0.025594015
51	0xbe32cbc3	-0.17460541
52	0x3d4c908d	0.049942542
53	0xbf05d76a	-0.5228182
54	0xbe76936b	-0.24079673
55	0xbe074db8	-0.13213241
56	0x3dce9ef4	0.10088912
57	0xbe83e507	-0.25760671
58	0xbe11da70	-0.14243484
59	0x3cbca087	0.023025764
60	0x3dac0f52	0.084013596
61	0x3d640464	0.05566825
62	0x3e1f08f9	0.15530767
63	0xbe86323b	-0.26210198
64	0xbc0231f4	-0.00794648
65	0xbdf2e3d3	-0.1185986
66	0x3e0f71a8	0.140082
67	0x3e036096	0.12829813
68	0xbeb9fe86	-0.36326998
69	0x3dd4dbb0	0.103934646
70	0x3e0adf9d	0.13561864
71	0x3e1d6538	0.15370643
72	0x3dc21b87	0.09477907
73	0x3e4eb3bd	0.20185752
74	0xbec4d9df	-0.38447472
75	0x3d9088e4	0.0705736
76	0xbd36fac2	-0.044672735
77	0x3e2b07fd	0.16702266
78	0x3cd9823a	0.026551355
79	0x3d8ae7bf	0.06782483
80	0xbe91b38a	-0.2845729
81	0x3da5c99c	0.080950946
82	0x3ddfea9d	0.10933421
83	0xbe4175c8	-0.18892586
84	0x3d591e60	0.053007483
85	0xbe421ddb	-0.18956701
86	0x3d074b82	0.033030994
87	0xbe931852	-0.28729492
88	0x3de3d041	0.11123706
89	0x3caf4362	0.021394435
90	0xbe1c0dc9	-0.15239634
91	0x3e0bdc47	0.13658248
92	0x3d58f945	0.052972097
93	0x3deb5f68	0.11492807
94	0xbcbe9556	-0.023264568
95	0xbe8bb8c8	-0.27289414
96	0xbe335746	-0.17513761
97	0x3e0f12a8	0.1397196
98	0xbe886078	-0.266361
99	0xbe9af45b	-0.30264553
100	0x3dbcff55	0.09228388
101	0x3d997798	0.07493514
102	0xbe745622	-0.23860982
103	0x3d999872	0.0749978
104	0x3d376b68	0.044780165
105	0x3df6b39c	0.120459765
106	0xbe58d578	-0.21175182
107	0x3d8974db	0.067117415
108	0xbd60b5a2	-0.05486072
109	0x3d7a31a4	0.061082497
110	0xbe95627c	-0.291767
111	0xbe60073b	-0.21877758
112	0x3e31293c	0.17300886
113	0xbe6f37fc	-0.233612
114	0xbe691fd7	-0.22766052
115	0x3d88e8f1	0.06685055
116	0xbd4124bd	-0.047154177
117	0xbe82ba44	-0.25532734
118	0xbe6353a3	-0.22199874
119	0x3e074699	0.13210525
120	0xbe6be6bf	-0.23037241
121	0xbe3f0d28	-0.18657362
122	0x3d9c5632	0.07633628
123	0xbd811c26	-0.06304197
124	0xbe50b46e	-0.20381328
125	0x3db1e19d	0.086856104
126	0xbe4817f4	-0.19540387
127	0xbe049c8b	-0.12950341
128	0x3dc89918	0.09794825
129	0xbcca3641	-0.024684073
130	0x3c9deaf4	0.019277073
131	0x3dca85f0	0.09888828
132	0xbc3bd546	-0.011464423
133	0x3dd6ce4d	0.104885675
134	0x3d2d3b1a	0.04229269
135	0xbe518aea	-0.20463148
136	0x3d7badd1	0.06144506
137	0x3ba98980	0.005173862
138	0xbe083fdf	-0.13305615
139	0xbe49ef8f	-0.1972029
140	0xbd0c0b8e	-0.034190707
141	0xbdae7674	-0.08518687
142	0x3da00853	0.07814088
143	0x3e24356f	0.16036008
144	0xbe210bf3	-0.15727215
145	0x3dd6ab19	0.10481853
146	0xbd668d79	-0.056287263
147	0x3dffa832	0.124832526
148	0x3d7a90fd	0.061173428
149	0xbdd8bd35	-0.105829634
150	0xbd89892d	-0.06715617
151	0xbe5e2518	-0.21693838
152	0xbe286dde	-0.16448161
153	0xbdc3fdae	-0.0956987
154	0x3d9cf8b1	0.076646216
155	0x3e22b009	0.15887465
156	0xbd0b553e	-0.03401684
157	0xbdf1dc3e	-0.11809586
158	0x3df94559	0.1217143
159	0xbe3853fd	-0.18000789
160	0x3de4439a	0.111457065
161	0x3da16366	0.07880287
162	0xbd4d636e	-0.05014365
163	0xbe29029c	-0.16504902
164	0x3e098fc9	0.13433756
165	0x3d96d4a0	0.07364774
166	0xbdaaa792	-0.08332743
167	0xbe819ac5	-0.25313392
168	0xbe68c1da	-0.22730199
169	0x3e12fa27	0.14353238
170	0xbe59b7d8	-0.21261537
171	0xbe676327	-0.22596417
172	0xbe1d51bb	-0.15363209
173	0xbe66bf66	-0.2253395
174	0x3d8cfec5	0.06884531
175	0xbea62beb	-0.32455382
176	0xbe095ba2	-0.13413861
177	0xbd5ade81	-0.053434853
178	0x3da4a9de	0.08040212
179	0x3ded3101	0.115816124
180	0xbdb6db7d	-0.08928583
181	0x3de068be	0.10957478
182	0xbecf0abd	-0.4043788
183	0x3d16d029	0.03681961
184	0x3db94337	0.09046023
185	0x3de9e469	0.11420519
186	0x3dc4f93b	0.096178494
187	0xbe108205	-0.14112099
188	0xbe0f9d5f	-0.14024876
189	0xbdfbd292	-0.122960225
190	0xbe0cde60	-0.13756704
191	0xbebf32ea	-0.37343532
192	0xbe621899	-0.22079696
193	0xbe1fc403	-0.15602116
194	0xbde8a639	-0.113598295
195	0xbd16981d	-0.03676616
196	0xbe62db76	-0.2215403
197	0xbe1a2761	-0.15054084
198	0x3de43f4f	0.11144888
199	0xbd284289	-0.041079078
200	0xbea35f33	-0.3190857
201	0x3db066a5	0.08613328
202	0xbe0f44c9	-0.13991083
203	0xbe05d09f	-0.13067864
204	0x3d06dbad	0.032924343
205	0x3e048abf	0.12943552
206	0x3c720c84	0.014773492
207	0x3db16e17	0.08663576
208	0xbe2415b3	-0.16023903
209	0xbdecd40b	-0.115638815
210	0x3dbc837e	0.09204768
211	0xbeac0cae	-0.33603424
212	0xbe2fb0a4	-0.17157227
213	0x3dd0d0d4	0.10196081
214	0xbe43ea28	-0.19132292
215	0xbe2bc746	-0.16775236
216	0x3e281934	0.16415864
217	0x3dfb9d5a	0.12285872
218	0x3de563a8	0.112006485
219	0xbe0c310a	-0.13690582
220	0xbe5dc266	-0.21656188
221	0x3e08289e	0.13296744
222	0x3c389c19	0.011267685
223	0x3e4494f4	0.19197446
224	0xbe6f2cd9	-0.23356952
225	0x3e0864f2	0.13319758
226	0xbda6a6d2	-0.08137287
227	0x3e43d494	0.19124061
228	0xbe69f4db	-0.22847311
229	0x3e001124	0.12506539
230	0x3e1c7ed4	0.15282756
231	0xbe3b517c	-0.18292803
232	0x3dec57ae	0.11540161
233	0xbe0c6578	-0.13710582
234	0xbe713981	-0.23557092
235	0x3dc19c8d	0.09453688
236	0xbe6a223d	-0.22864623
237	0x3df763b2	0.12079562
238	0x3d840959	0.064470954
239	0xbe037aa7	-0.12839757
240	0xbe133a77	-0.14377771
241	0x3e13f1bc	0.14447683
242	0xbe00ea8c	-0.12589473
243	0xbd0a5526	-0.03377261
244	0x3e1c6d15	0.15275986
245	0x3dd38141	0.103273876
246	0x3e08f022	0.13372853
247	0x3deaf1a4	0.114718705
248	0x3dbeabdb	0.093101226
249	0xbe18e7ea	-0.14932218
250	0x3dc5c48d	0.0965663
251	0xbe06339e	-0.13105628
252	0xbd5d46b1	-0.054022495
253	0xbc75ed4a	-0.015010187
254	0xbe2fbe9d	-0.17162557
255	0xbd7aae08	-0.061201125

classifier.3.bias f4 [10]
0	0x3f7622dd	0.9614695
1	0xbbbeb125	-0.005819457
2	0x3dd7b7a3	0.10533073
3	0x3e1b4f6e	0.15167019
4	0xbf3e99c5	-0.74453384
5	0xbe507506	-0.20357141
6	0xbee764d0	-0.451941
7	0xbe5e23ec	-0.2169339
8	0xbdd8cf6f	-0.1058644
9	0x3e899bf6	0.268768
