Domain_Adaptation/trained_models/adda.pt (torch, 92636 bytes, 8 tensors)

feature_extractor.0.weight f4 [10, 3, 5, 5]
0	0xbe393f18	-0.18090475
1	0x3dd230c1	0.10263205
2	0x3e504cde	0.20341823
3	0x3e5fab4f	0.21842693
4	0x3e80890b	0.25104555
5	0xbe84ccb4	-0.25937426
6	0xbc300ae7	-0.010744787
7	0xbd9bd956	-0.07609813
8	0x3d1224e0	0.035679698
9	0x3dcbc467	0.0994957
10	0xbe8ab0d2	-0.27088028
11	0x3d248bf7	0.040172543
12	0xbdd8e40b	-0.10590371
13	0x3cbe23ab	0.023210367
14	0x3e716fc6	0.23577794
15	0xbdfee0a1	-0.12445188
16	0xbcbc2124	-0.022965021
17	0xbdb56dbc	-0.08858821
18	0xbdd644df	-0.10462355
19	0x3ea366bb	0.31914315
20	0xbe1247ea	-0.14285246
21	0xbe032d6b	-0.12810294
22	0xbe909c71	-0.28244355
23	0xbddc72c1	-0.10764075
24	0x3ea07275	0.31337324
25	0x3c1a8f3e	0.009433566
26	0xbd880b94	-0.06642833
27	0xbe5884b9	-0.2114438
28	0xbd34bc09	-0.044124637
29	0xbdd7a5c2	-0.10529663
30	0x3e3085f5	0.172386
31	0x3c4b1ad3	0.012396532
32	0xbd622b3e	-0.05521702
33	0x3d44eb7b	0.048076134
34	0xbdb61591	-0.08890832
35	0x3e681fef	0.22668432
36	0xbcc8feaa	-0.024535496
37	0xbdfbaaef	-0.12288462
38	0x3c124630	0.008927867
39	0xbe490cf3	-0.19633846
40	0x3dec6ff0	0.11544788
41	0x3d7f4112	0.062317915
42	0x3d9e1caa	0.07720311
43	0xbdceb404	-0.10092929
44	0xbe10c388	-0.14137089
45	0x3e434381	0.1906872
46	0x3da5f6f5	0.08103744
47	0x3e4ca42b	0.199845
48	0xbdf7985a	-0.12089606
49	0xbda6e315	-0.08148781
50	0x3d3bc88c	0.045845553
51	0xbd2094e6	-0.0392045
52	0x3c9fcb74	0.019506194
53	0x3c936b8a	0.017995615
54	0xbd9cc100	-0.07653999
55	0x3d42ff54	0.04760678
56	0xbd19d3c5	-0.037555475
57	0x3d569187	0.05238488
58	0x3c0cabb2	0.008585857
59	0x3d2c9e2a	0.042143025
60	0xbd6cf785	-0.05785324
61	0x3b77e5bd	0.0037826144
62	0x3ca6a1bc	0.020340793
63	0x3e08e76d	0.13369532
64	0xbd25ac9b	-0.040447813
65	0xbcf83c72	-0.03030226
66	0xbd17e828	-0.037086636
67	0xbcbdc270	-0.023164004
68	0x3c26a9ca	0.010172317
69	0x3cbeda37	0.023297412
70	0xbd8f0040	-0.069824696
71	0xbc60f137	-0.013729385
72	0x3db5ef02	0.08883478
73	0xbda4dc02	-0.08049776
74	0x3c7d381b	0.015455271
75	0x3d7466c4	0.059668317
76	0x3da5fd17	0.08104914
77	0xbdc14534	-0.094370276
78	0xbd3c6315	-0.04599293
79	0xbd84338b	-0.064551435
80	0x3d902ae6	0.07039432
81	0x3da1c4cf	0.078988664
82	0x3d4ebaf5	0.050471265
83	0x3d820862	0.06349255
84	0x3e0ea07e	0.1392841
85	0x3e2dd8d7	0.16977249
86	0x3ddb1762	0.10697819
87	0x3cb4555f	0.022013364
88	0x3dfc5a49	0.12321908
89	0x3ed451fb	0.41468796
90	0x39123110	0.00013941922
91	0x3d4e5153	0.050370526
92	0x3e778724	0.24172646
93	0x3eab5d9c	0.33469856
94	0x3e54512c	0.2073409
95	0xbe66a18f	-0.22522567
96	0xbe45ac81	-0.19304086
97	0xbe990c60	-0.29892254
98	0xbefd1fad	-0.4943823
99	0xbeeddd59	-0.46457937
100	0x3c774300	0.015091658
101	0xbdb53491	-0.08847917
102	0x3dc38b04	0.095479995
103	0x3d997ad8	0.07494134
104	0x3c3bccd4	0.011462409
105	0xbd9e6a0f	-0.07735073
106	0xbd881c51	-0.06646026
107	0xbd7bd9aa	-0.061486878
108	0x3cdc2fe7	0.02687831
109	0xbd8c3fde	-0.06848119
110	0xbe05af4d	-0.13055153
111	0x3d79e0a1	0.06100524
112	0xbdbe99fc	-0.09306714
113	0xbe5e0755	-0.21682484
114	0xbdb8ba84	-0.0901995
115	0xbd960ab3	-0.073262595
116	0xbd810687	-0.06300073
117	0x3d19716a	0.037461676
118	0x3cbc8b36	0.0230156
119	0xbe31e178	-0.17371166
120	0x3e112c2e	0.1417701
121	0x3dbfbcad	0.09362159
122	0xbc4afe9d	-0.012389806
123	0x3d679853	0.056541752
124	0x3e4256a9	0.1897837
125	0x3c9671f2	0.01836488
126	0xbac30a5a	-0.0014880404
127	0xba9e3435	-0.0012070002
128	0xbcfb3520	-0.03066498
129	0xbba5e92c	-0.0050631966
130	0x3c87fbc8	0.01659955
131	0xbc7c8b80	-0.015414119
132	0x3c0fe75e	0.00878319
133	0x3d08ce07	0.033399608
134	0xbc819409	-0.015817659
135	0x3b9656f8	0.004588004
136	0xbd8bf7bf	-0.06834363
137	0x3d8af1df	0.067844145
138	0xbcf0cddb	-0.029395035
139	0xbd63aa40	-0.055582285
140	0xbc87a4dc	-0.016558103
141	0x3ab4d817	0.001379731
142	0x3d9a238e	0.07526313
143	0x3db73f67	0.0894764
144	0xbddc6481	-0.10761357
145	0x3deae1af	0.11468827
146	0xbcb26d76	-0.02178071
147	0xbd80ca1e	-0.06288551
148	0x3dd88760	0.10572696
149	0x3d9fd57a	0.07804389
150	0xbd59f37e	-0.053210728
151	0xbe7bd2d0	-0.24592137
152	0xbdaed920	-0.08537507
153	0x3d786d35	0.060651023
154	0x3b61a26f	0.0034429093
155	0xbd8e2cb1	-0.06942118
156	0xbda67d1b	-0.08129331
157	0x3e0701b0	0.13184237
158	0x3de8309f	0.11337399
159	0xbe3a8e8e	-0.18218443
160	0xbc9b18ea	-0.018932778
161	0x3d2aa55b	0.0416616
162	0x3e442f3c	0.19158643
163	0xbe1c6465	-0.15272672
164	0xbe899f79	-0.2687948
165	0x3d20b0c5	0.03923108
166	0x3c6a45a6	0.014298832
167	0xbe543e73	-0.20726947
168	0xbe44ea7e	-0.19230077
169	0x3cd0e8d5	0.025501648
170	0xbd19a1b8	-0.037507743
171	0xbbdbbab3	-0.006705606
172	0xbc841911	-0.016125234
173	0xbb3f90ab	-0.0029230516
174	0x3b8018b6	0.003909196
175	0xbe566e8f	-0.20940612
176	0xbe8370d0	-0.25672007
177	0xbd50cc90	-0.050976336
178	0xbdc86c66	-0.097863
179	0x3d0ea49a	0.034824945
180	0xbe19a4c1	-0.15004255
181	0xbd756311	-0.05990893
182	0x3c9d2e14	0.01918701
183	0x3ca40405	0.020021448
184	0xbe45f376	-0.19331154
185	0xbe10e988	-0.14151585
186	0xbda0e391	-0.07855905
187	0x3d6ba76c	0.057532713
188	0xbcf3153f	-0.029673217
189	0xbecb7b33	-0.3974243
190	0xbdd00ec2	-0.10159065
191	0xbe235178	-0.15949047
192	0xbc40b65c	-0.011762228
193	0xbdfc0112	-0.12304892
194	0xbda1fb7c	-0.07909295
195	0xb93553c0	-0.00017292704
196	0xbe105c63	-0.14097743
197	0x3b082157	0.0020771825
198	0x3c2f4791	0.010698215
199	0xbe0d512b	-0.13800494
200	0xbe421f07	-0.18957148
201	0xbddaad4f	-0.10677587
202	0xbdb0d6d1	-0.08634723
203	0x3d31df0e	0.043425612
204	0xbdf907a2	-0.12159659
205	0xbe34e7da	-0.1766657
206	0xbddb7b30	-0.107168555
207	0x3ce9b995	0.028530875
208	0xbd0ee470	-0.034885824
209	0xbe48c6af	-0.19607042
210	0xbba4b257	-0.0050261426
211	0x3d8a1450	0.067421556
212	0x3d9f3612	0.07773985
213	0xbe69dc0e	-0.2283785
214	0xbe6103d4	-0.21974117
215	0x3d08d48b	0.03340582
216	0xbe13a359	-0.14417781
217	0xbe5966aa	-0.2123057
218	0xbe0dfbc9	-0.1386558
219	0xbd86acfa	-0.065759614
220	0xbe2d1889	-0.1690389
221	0xbd35f2ff	-0.044421192
222	0x3c8f81bb	0.017517915
223	0x3e13f9c2	0.14450744
224	0xbd5e0171	-0.054200593
225	0xbc7041bc	-0.01466411
226	0xbe3640d6	-0.1779817
227	0xbe3de849	-0.18545641
228	0xbd9c5d08	-0.07634932
229	0xbd9fd5dc	-0.07804462
230	0xbc439a8d	-0.011938703
231	0xbd58a7a8	-0.052894264
232	0xbe09f094	-0.1347068
233	0xbdc34f84	-0.09536651
234	0x3cd33ce1	0.025785865
235	0x3e3d4d8a	0.1848661
236	0x3cc1bbe8	0.023649171
237	0xbd09598d	-0.033532668
238	0x3d1aa560	0.03775537
239	0x3d2d85e0	0.042364
240	0xbe4194af	-0.18904375
241	0xbe4b1d65	-0.19835432
242	0x3da85dc6	0.08221011
243	0xbd274d0c	-0.040844962
244	0x3e80d4dc	0.251624
245	0x3eff859d	0.49906626
246	0x3e810580	0.2519951
247	0xbc989173	-0.018624043
248	0x3e3c2361	0.18372871
249	0x3dc4c090	0.09607041
250	0x3c99c5e8	0.018771127
251	0x3e2cb3b5	0.16865428
252	0x3e3e325b	0.18573897
253	0x3dd5aa5e	0.104328856
254	0x3d2ea054	0.04263337
255	0xbe332d2c	-0.174977

feature_extractor.0.bias f4 [10]
0	0xbcd7a1c2	-0.02632225
1	0xbd7d811b	-0.061890703
2	0xbefe1991	-0.4962888
3	0xbe1acd4d	-0.15117379
4	0x3c78af5a	0.015178526
5	0xbd7badfa	-0.061445214
6	0xbc947e89	-0.018126743
7	0xbdb83d54	-0.089960724
8	0xbcdeef82	-0.027213816
9	0xbe0f655c	-0.1400351

feature_extractor.3.weight f4 [20, 10, 5, 5]
0	0xbe962a7e	-0.29329294
1	0xbde7f8cd	-0.11326752
2	0xbea80b57	-0.32821152
3	0xbeae0584	-0.33988583
4	0xbee6c81d	-0.4507455
5	0xbce5655f	-0.028002439
6	0x3eaa3095	0.3324019
7	0x3db8089c	0.08986017
8	0x3e0cf54a	0.13765445
9	0x3cf34402	0.029695515
10	0xbe1632bf	-0.14667796
11	0x3e4f01b7	0.20215498
12	0x3e496e06	0.19670877
13	0xbd188360	-0.037234664
14	0x3da39b75	0.079886355
15	0x3cb293f7	0.02179907
16	0x3dea272a	0.11433251
17	0x3e77f6f7	0.24215303
18	0x3e3a6a16	0.18204531
19	0x3db56f06	0.08859067
20	0xbe562049	-0.20910753
21	0xbe630a52	-0.22171906
22	0xbe26c580	-0.16286278
23	0x3de31150	0.110872865
24	0xbeeccc27	-0.46249506
25	0x3e0b00d6	0.13574538
26	0xbd21524f	-0.039385136
27	0xbdb703b5	-0.08936254
28	0x3df5e657	0.120068245
29	0xbcc81256	-0.024422806
30	0x3db93850	0.09043944
31	0xbd587ab3	-0.05285139
32	0xbd4a70a7	-0.04942384
33	0x3e2edea8	0.17077124
34	0x3e501cef	0.20323537
35	0x3bde4cfe	0.0067840805
36	0x3b7d48f9	0.0038648231
37	0xbd0c52c6	-0.034258626
38	0x3e56a08f	0.20959686
39	0x3e84c14e	0.2592873
40	0x3cbabff2	0.022796605
41	0xbcee4e29	-0.029090004
42	0xbd246b7f	-0.04014158
43	0x3e71c8e7	0.23611794
44	0x3e10016d	0.14063044
45	0xbe444d2d	-0.19170065
46	0xbc9eb104	-0.019371517
47	0xbb8ce7ce	-0.004300094
48	0xbd3b25c3	-0.04569031
49	0xbe9455f0	-0.28971815
50	0x3cd08f41	0.025458934
51	0xbe18d683	-0.1492558
52	0x3d9850ff	0.07437324
53	0x3e5a51cd	0.21320267
54	0x3e729167	0.23688279
55	0xbe47631a	-0.19471398
56	0xbd6de4ec	-0.058079645
57	0xbe0e6023	-0.13903861
58	0x3cebde71	0.028792592
59	0x3e323b3f	0.17405413
60	0xbe22cbfe	-0.1589813
61	0xbe12eba1	-0.14347698
62	0xbc898b18	-0.016789958
63	0xbd167de0	-0.036741138
64	0xbcd08f1a	-0.025458861
65	0xbdb6cfc1	-0.08926345
66	0xbe44a50c	-0.19203585
67	0xbd97d6f6	-0.074140474
68	0xbdb4a107	-0.08819776
69	0x3c907708	0.017634884
70	0xbd9bffac	-0.07617125
71	0xbe790240	-0.24317265
72	0xbe3cde5d	-0.184442
73	0xbd2b8a37	-0.04187986
74	0x3e0f0290	0.13965821
75	0x3cb52df0	0.022116631
76	0x3dbd7ea2	0.09252669
77	0x3dbdbeaa	0.09264882
78	0x3cf06410	0.029344589
79	0x3e02a81c	0.12759441
80	0xbe5ba701	-0.21450426
81	0x3dbcca1b	0.09218236
82	0x3decb5b1	0.115580924
83	0x3d30a1bf	0.043123003
84	0x3e7592ea	0.23981825
85	0x3d6610ce	0.05616837
86	0x3dcc36c6	0.09971385
87	0x3d5f175e	0.054465644
88	0x3d9eee45	0.0776029
89	0x3d1ec166	0.038758658
90	0x3d811849	0.0630346
91	0x3dc36c11	0.095420964
92	0xbdcc3e13	-0.09972777
93	0x3de19966	0.110155866
94	0x3e22217c	0.15833086
95	0x3d4a23c2	0.049350508
96	0xbe173e08	-0.14769757
97	0xbdb1cb12	-0.08681311
98	0x3ba86bf8	0.005139824
99	0xbedcede5	-0.4315025
100	0x3e693ee8	0.22777903
101	0x3c16ce72	0.009204494
102	0xbd1cbc56	-0.03826555
103	0xbd9570c0	-0.07296896
104	0x3d56fe77	0.05248877
105	0xbdf59165	-0.119906224
106	0x3cc005aa	0.0234402
107	0xbc750960	-0.014955848
108	0xbdf1b7ea	-0.11802657
109	0xbe00fb95	-0.12595971
110	0x3ccd176d	0.025035584
111	0x3e17d630	0.148278
112	0xbd0a40c3	-0.033753168
113	0xbdcc63e8	-0.09979993
114	0xbe492821	-0.19644214
115	0xbd9363b9	-0.07196755
116	0x3dbf0685	0.093274154
117	0x3d5236c2	0.051321752
118	0xbc7cd167	-0.015430785
119	0xbe6f4c18	-0.23368871
120	0xbea9c92a	-0.33161288
121	0xbe1c7758	-0.15279901
122	0xbc99649f	-0.018724738
123	0x3d0bb2bd	0.034106005
124	0x3c97904e	0.018501427
125	0xbeeb3a95	-0.45943132
126	0xbe8d9e04	-0.2765962
127	0xbcc2f68a	-0.0237992
128	0x3d83db88	0.06438357
129	0x3bf6fdc8	0.0075375773
130	0x3d470b98	0.04859504
131	0xbe1c7e57	-0.1528257
132	0xbe1ba5b1	-0.15199925
133	0x3cc607c5	0.024173627
134	0xbcf02341	-0.029313685
135	0x3e0b0c0e	0.13578817
136	0xbd491b36	-0.049098216
137	0xbd297215	-0.041368563
138	0x3c8cdd39	0.017195331
139	0xbd20c661	-0.03925169
140	0x3da399b5	0.07988302
141	0x3da0816b	0.078371845
142	0xbc9624b2	-0.018328045
143	0xbc983d01	-0.018583776
144	0xbd93b8ef	-0.07213008
145	0x3d5beb6d	0.053691316
146	0x3c3c6f6b	0.0115011735
147	0x3e57b5d2	0.21065453
148	0x3e24bc0c	0.16087359
149	0x3e9120dc	0.28345382
150	0xbe8640a3	-0.2622119
151	0xbe23ca32	-0.159951
152	0xbe04578d	-0.12924023
153	0x3d8a2a76	0.0674638
154	0xbbfcf822	-0.0077200094
155	0x3d49df6c	0.049285337
156	0x3dce9bcb	0.10088309
157	0x3dcbc85d	0.09950326
158	0xbd05c743	-0.032660734
159	0x3ca9f245	0.020745406
160	0xbe89c832	-0.2691055
161	0x3e0a4194	0.13501579
162	0x3e4b4330	0.19849849
163	0xbda75996	-0.08171384
164	0xbe03bf9b	-0.1286606
165	0xbe4e538a	-0.20149055
166	0xbe9024a5	-0.28152958
167	0x3d665481	0.056232933
168	0x3e1a4d9a	0.15068665
169	0xbb80d089	-0.0039311093
170	0x3d21f4cc	0.039540097
171	0x3dad549d	0.08463404
172	0xbd088a5a	-0.033335067
173	0xbd75f935	-0.060052115
174	0x3e0d360c	0.13790148
175	0xbd9a8455	-0.075447716
176	0xbdf9eccb	-0.12203368
177	0x3da4888d	0.080338575
178	0x3e5dc584	0.21657377
179	0x3e533304	0.2062493
180	0x3d8fea58	0.070271194
181	0x3c428f55	0.011874993
182	0xbdaa8585	-0.08326248
183	0xbdef2916	-0.116777584
184	0x3d2b0128	0.04174915
185	0xbe286124	-0.16443306
186	0xbc6a6e03	-0.014308455
187	0x3d98259b	0.07429048
188	0xbd321aec	-0.043482706
189	0x3e3b2502	0.18275836
190	0xbe8c61fc	-0.27418506
191	0xbe514753	-0.20437364
192	0xbd8bad1f	-0.068201296
193	0xbe489458	-0.19587839
194	0xbd03a6d8	-0.032141536
195	0x3d59ed25	0.053204674
196	0x3d123706	0.035697006
197	0xbe3c3453	-0.18379335
198	0xbe6ea0b4	-0.23303491
199	0xbdbd0ba5	-0.09230737
200	0xbe8fc044	-0.28076375
201	0xbe627a2c	-0.22116917
202	0x3d3e53aa	0.046466507
203	0x3e577d2b	0.21043842
204	0x3eb2cfdb	0.34924206
205	0x3dad838f	0.084723584
206	0x3e42e18f	0.19031356
207	0x3dca8a91	0.09889711
208	0x3e224c1f	0.1584935
209	0x3d9ad356	0.075598404
210	0x3d62c33b	0.055361968
211	0x3e18d5f4	0.14925367
212	0x3da5b7c0	0.08091688
213	0x3b502b51	0.00317641
214	0x3cc95012	0.024574313
215	0xbc1e2ad7	-0.0096537685
216	0xbd5a12b1	-0.05324048
217	0xbc946cdf	-0.01811832
218	0xbe0ae4ee	-0.13563892
219	0xbe0e7b04	-0.13914114
220	0xbe26a7f1	-0.16275002
221	0xbe96e133	-0.29468688
222	0xbdda930b	-0.106725775
223	0x3cc839fb	0.02444171
224	0xbc2a8d66	-0.010409689
225	0xbe10b903	-0.14133076
226	0x3d55aa73	0.052164506
227	0xbdb75f98	-0.0895378
228	0xbc9f9552	-0.019480381
229	0xbe0f6455	-0.14003117
230	0xbdfd18cd	-0.12358246
231	0x3b9bd29c	0.004755331
232	0xbdc8fbbb	-0.09813639
233	0x3dbcb168	0.09213525
234	0x3ccf4121	0.02529961
235	0xbe6a02b5	-0.22852595
236	0xbd7f0e67	-0.062269595
237	0xbd412c84	-0.047161594
238	0x3e8b12aa	0.27162677
239	0x3db84cfc	0.089990586
240	0xbd731b77	-0.059352364
241	0x3e4ebe44	0.20189768
242	0x3edde9e0	0.43342495
243	0x3e96b5a6	0.29435462
244	0x3d22df4e	0.03976374
245	0x3f03d57c	0.51497626
246	0x3dc45676	0.095868036
247	0x3e0710c0	0.13189983
248	0xbce013bf	-0.027353166
249	0xbed44d16	-0.41465062
250	0xbe724de9	-0.23662533
251	0x3e0ae51c	0.13563961
252	0x3ddad61e	0.10685371
253	0xbe132575	-0.14369757
254	0xbef2b701	-0.47405246
255	0xbe141646	-0.14461622

feature_extractor.3.bias f4 [20]
0	0xbd252c80	-0.04032564
1	0xbddcca67	-0.10780793
2	0xbd41656e	-0.04721587
3	0xbe42ce64	-0.19024044
4	0x3e5749b8	0.21024215
5	0x3e46238f	0.19349502
6	0xbc737a3e	-0.014860688
7	0x3dad9cc9	0.0847717
8	0x3cdff419	0.027338075
9	0x3c9463d4	0.018114008
10	0xbe895b5f	-0.26827523
11	0x3b7e03fc	0.00387597
12	0xbeac9a53	-0.3371149
13	0x3c0383d7	0.008027039
14	0xbdc90baa	-0.09816678
15	0xbdbe99cf	-0.093066804
16	0xbe588b1b	-0.21146815
17	0xbc89f40b	-0.016840002
18	0xbdc09b3a	-0.09404607
19	0x3dde3b5a	0.10851164

classifier.0.weight f4 [50, 320]
0	0x3d5017db	0.050804
1	0x3df0a4b0	0.11750162
2	0x3c84f66b	0.016230782
3	0x3d67df6d	0.05660956
4	0x3d14a2c4	0.036288038
5	0x3d05028e	0.03247314
6	0xbd0dc8fb	-0.034615498
7	0xbe008572	-0.12550905
8	0xbc8d5343	-0.017251616
9	0xbe7b75ec	-0.24556702
10	0xbc28b007	-0.010295874
11	0xbbef39c8	-0.0073005892
12	0x3ad30d54	0.0016101995
13	0xbd773538	-0.060353488
14	0x3d01fff6	0.031738244
15	0x3d1c699c	0.038186654
16	0xbb9c2e60	-0.0047662705
17	0x3ddd01a2	0.10791327
18	0x3e08ab82	0.13346675
19	0x3d9d8547	0.07691436
20	0xbc1b9e02	-0.009498121
21	0xbc3b2622	-0.011422666
22	0xbe26d4d4	-0.16292125
23	0xbd80d316	-0.062902614
24	0x3d917edf	0.07104277
25	0xbd8f856d	-0.07007871
26	0x3cf1028d	0.029420162
27	0xbd1254fb	-0.035725575
28	0xbe269af3	-0.16270046
29	0xbd80ed6d	-0.062952854
30	0x3e3fdede	0.18737361
31	0x3d83e208	0.064395964
32	0x3d97f4e5	0.07419757
33	0x3c92d9ae	0.017926063
34	0x3c855420	0.016275465
35	0x3da76ee1	0.08175445
36	0x3df06ea2	0.117398515
37	0x3dd5f896	0.10447805
38	0xbdabe895	-0.08393971
39	0xbe846175	-0.25855604
40	0x3e443820	0.19162035
41	0x3d49a37a	0.04922817
42	0xbd9ce36b	-0.07660564
43	0xbd85f738	-0.06541294
44	0xbeb2fab4	-0.34956896
45	0xbe4650d3	-0.1936677
46	0x3d1cd38b	0.03828768
47	0x3df4af1c	0.11947462
48	0xbcbc19cb	-0.022961518
49	0xbcf33e64	-0.029692836
50	0x3db6a022	0.08917262
51	0xbd549def	-0.05190843
52	0x3e8f693b	0.28009972
53	0x3c5e31e4	0.0135617
54	0xbd1dfebc	-0.03857301
55	0x3d15b276	0.036547147
56	0xbe3e55d4	-0.18587428
57	0xbda7a877	-0.08186429
58	0x3d42157a	0.047383763
59	0x3d8e1e17	0.06939333
60	0x3d85e2a2	0.065373674
61	0x3c0ad015	0.008472462
62	0xbd216b79	-0.039409135
63	0x3e11baa9	0.14231361
64	0xbe59db26	-0.21275005
65	0xbcd68bd1	-0.026189717
66	0x3e0e9ee4	0.139278
67	0x3e1c60aa	0.1527125
68	0xbde9072b	-0.1137832
69	0xbc8f41b0	-0.017487377
70	0xbc8ed80c	-0.017437004
71	0xbc4b2d2f	-0.012400909
72	0x3ec95fc4	0.39330876
73	0x3d2f4a3d	0.04279541
74	0x3cd526ce	0.02601948
75	0xbd163c3d	-0.03667854
76	0xbdb060cf	-0.08612215
77	0xbe0be6b8	-0.13662231
78	0xbe0d3cac	-0.13792676
79	0x3e1b4ca2	0.15165952
80	0x3d6436ca	0.055716313
81	0xbd0c432c	-0.034243748
82	0x3dcde68a	0.100537375
83	0xbd1c8c9c	-0.038220033
84	0x3e36eeb3	0.17864494
85	0xbb959d03	-0.0045658364
86	0x3c249570	0.010045394
87	0xbe3807ea	-0.17971769
88	0x3dc40528	0.09571296
89	0xbd83e5aa	-0.06440289
90	0x3bd390e9	0.0064564836
91	0xbbc91eb3	-0.006137693
92	0xbe1af19f	-0.15131234
93	0xbdb21701	-0.08695794
94	0xbcc8ffbc	-0.024536006
95	0xbd46d4bc	-0.048542723
96	0x3e0860bd	0.13318153
97	0x3d148219	0.036256883
98	0x3b4502da	0.0030061514
99	0xbe02a5dc	-0.12758583
100	0x3e6e364c	0.232629
101	0xbd693cc7	-0.056942727
102	0x3d8b57f2	0.068038836
103	0x3ba0593a	0.004893449
104	0xbdc66051	-0.0968634
105	0xbe5677c6	-0.20944127
106	0x3c97c39b	0.01852589
107	0xbd62a764	-0.055335417
108	0xbd89af39	-0.06722874
109	0xbe26de81	-0.16295816
110	0xbe7eeb4c	-0.24894446
111	0x3d9ae9a4	0.07564095
112	0x3da50d09	0.08059127
113	0xbc9b81f0	-0.018982857
114	0x3d828426	0.063728616
115	0x3cb39143	0.021919852
116	0x3e473b6b	0.1945626
117	0xbde1405f	-0.10998606
118	0x3e014317	0.12623249
119	0xbd921f81	-0.07134915
120	0xbd393890	-0.045219958
121	0xbe297a9e	-0.16550681
122	0xbab7c492	-0.0014020375
123	0x3d71fbe4	0.059078112
124	0xbdc33ec9	-0.0953346
125	0xbe303972	-0.17209414
126	0xbc8f8647	-0.017520083
127	0x3dabe5e3	0.08393457
128	0xbd52c03d	-0.051452864
129	0xbb8e1ba3	-0.0043367906
130	0xbcb82727	-0.022479607
131	0xbd215cb9	-0.039395068
132	0x3df3f29b	0.11911508
133	0xbdd69535	-0.10477678
134	0x3dbf6f6d	0.09347425
135	0xbbeda7d9	-0.007252675
136	0xbcb22953	-0.02174822
137	0xbe177629	-0.14791168
138	0x3bd948cc	0.0066309925
139	0xbbc7b0f9	-0.006094095
140	0xbd9f2771	-0.07771195
141	0xbd87fbca	-0.06639822
142	0xbd8dc46b	-0.069222294
143	0x3c96a90b	0.018391153
144	0xbe43bcc4	-0.19114977
145	0x3dd70cd9	0.10500497
146	0xbd9860c5	-0.07440332
147	0x3dc63e3d	0.0967984
148	0x3d036ffc	0.03208922
149	0xbd993c3c	-0.07482192
150	0x3e113574	0.14180547
151	0xbd9a0b80	-0.07521725
152	0x3cdac39c	0.026704602
153	0x3e5f03b9	0.21778764
154	0xbdf5635b	-0.11981841
155	0xbd13148b	-0.035908263
156	0xbdbc48ce	-0.09193574
157	0xbe072c1a	-0.13200417
158	0xbd1fbd1e	-0.038998716
159	0x3c8dc19f	0.01730424
160	0x3dfa68a7	0.12226992
161	0x3d0504b6	0.032475196
162	0xbd8d51f3	-0.06900396
163	0xbda421f3	-0.08014288
164	0xbcb7e1cc	-0.022446536
165	0xbca6f193	-0.020378863
166	0xbdc6a84b	-0.09700068
167	0x3c2d49b1	0.010576651
168	0x3eff5d6c	0.49875963
169	0x3ba06184	0.0048944373
170	0xbd309a42	-0.04311586
171	0x3e511585	0.20418365
172	0xbe2da6ab	-0.1695811
173	0xbe1b73da	-0.15180913
174	0xbe3abfa6	-0.1823717
175	0xbd51eb9a	-0.051250078
176	0x3cca9c30	0.02473268
177	0x3e1e6266	0.15467224
178	0x3d074894	0.0330282
179	0x3c8bacfa	0.017050255
180	0x3c7f5402	0.015583994
181	0x3c7cacdf	0.015422075
182	0xbe567725	-0.20943888
183	0xbd430b07	-0.04761794
184	0xbe821ac8	-0.25411057
185	0x3d03492b	0.0320522
186	0x3d6b38fa	0.057427384
187	0x3dcea339	0.10089726
188	0xb9ca1b99	-0.00038549004
189	0x3dd3920f	0.10330593
190	0x3a97fcc3	0.0011595715
191	0x3e16d558	0.14729822
192	0x3e2ca372	0.16859224
193	0xbd6aeaad	-0.05735271
194	0x3e1809d8	0.14847505
195	0xbbe06e79	-0.006849107
196	0x3ce739f5	0.028225878
197	0xbd53945a	-0.05165515
198	0xbd1acec4	-0.037794843
199	0xbbaa80ff	-0.005203366
200	0xbe564725	-0.20925577
201	0xbdfb7d04	-0.12279704
202	0x3bf77959	0.0075523076
203	0x3da75315	0.081701435
204	0x3db1e0fc	0.086854905
205	0x3d5d9c26	0.054103993
206	0x3d3f4cbd	0.046704043
207	0x3e835921	0.25653937
208	0xbd9a4727	-0.075331025
209	0x3dd7186c	0.10502705
210	0x3e3273e4	0.17427021
211	0x3ca60751	0.02026716
212	0x3d126457	0.035740223
213	0xbe1e9fd1	-0.15490653
214	0x3e083b55	0.13303883
215	0xbe17cb52	-0.14823654
216	0xbd62e975	-0.055398423
217	0xbe83997a	-0.2570303
218	0xbd849a66	-0.06474762
219	0x3e1a02d9	0.15040149
220	0xbda0ca60	-0.078511
221	0xbd4717fc	-0.048606858
222	0xbce08244	-0.027405865
223	0x3e89b4aa	0.26895648
224	0xbda0405d	-0.07824776
225	0xbd0529a2	-0.032510407
226	0xbc56c492	-0.013108389
227	0xbd8b1bde	-0.067924246
228	0xbc1b74bc	-0.009488281
229	0x3e48364b	0.19551961
230	0xbd3ea92a	-0.046548046
231	0x3d8a98bb	0.06767412
232	0x3d1e9579	0.038716767
233	0xbe57e80a	-0.2108461
234	0xbc39bddb	-0.011336769
235	0x3dd148a6	0.10218935
236	0x3d4b57be	0.049644224
237	0xbd043bb2	-0.032283492
238	0xbdbfc0be	-0.093629345
239	0x3dd0350f	0.1016637
240	0x3db406c1	0.08790351
241	0x3cae6635	0.02128897
242	0x3d5500dd	0.052002776
243	0xbcc37134	-0.02385769
244	0x3d286a2c	0.04111688
245	0x3dccb4a4	0.09995392
246	0x3d4b5877	0.049644914
247	0xbe0b7b87	-0.1362134
248	0xbe888ee3	-0.26671514
249	0xbd46a247	-0.048494603
250	0xbdc33d62	-0.09533192
251	0xbd0772da	-0.033068515
252	0xbcc2898e	-0.023747232
253	0x3e01b3f2	0.126663
254	0xbc94fc8d	-0.018186832
255	0xbc86487e	-0.016391989

classifier.0.bias f4 [50]
0	0x3ea1d7cf	0.3160996
1	0x3e8188f4	0.252998
2	0xbe4e6fb0	-0.20159793
3	0xbda76775	-0.0817403
4	0x3ea9a4c5	0.33133522
5	0x3e14335a	0.14472714
6	0xbd953c92	-0.072869435
7	0x3d82a7d9	0.06379671
8	0xbbfa0614	-0.007630119
9	0x3d937723	0.07200458
10	0xbd972f44	-0.07382062
11	0xbe4a8f8d	-0.19781323
12	0xbe52a95d	-0.2057242
13	0x3e9cdff2	0.30639607
14	0xbdcaa777	-0.09895223
15	0x3e2b4080	0.16723824
16	0xbe84eea4	-0.25963318
17	0x3dd0e349	0.10199601
18	0x3ddbef22	0.1073897
19	0x3d721964	0.059106246
20	0x3ef7ac98	0.48373866
21	0xbd0ab177	-0.03386065
22	0xbe8182cf	-0.25295112
23	0xbe2cbc77	-0.16868769
24	0xbd5e6c16	-0.054302298
25	0xbe191396	-0.14948878
26	0x3dc4fe58	0.09618825
27	0xbe203837	-0.15646444
28	0x3e656858	0.22403085
29	0xbc60fb07	-0.013731725
30	0x3e2b469a	0.16726151
31	0xbea13587	-0.3148615
32	0x3d19acd1	0.037518326
33	0x3d985c24	0.074394494
34	0xbe527860	-0.20553732
35	0xbd50a1a6	-0.05093541
36	0xbe9b0cab	-0.30283102
37	0x3e02ef2e	0.12786552
38	0x3c545373	0.012959349
39	0x3edd7100	0.43250275
40	0x3db55bd5	0.08855406
41	0x3df8e0aa	0.12152226
42	0x3e3e99e5	0.18613394
43	0xbe15c968	-0.14627612
44	0x3e1587f4	0.14602643
45	0x3d43fafe	0.047846787
46	0x3e250fe5	0.16119345
47	0x3ec234fa	0.37931043
48	0x3e73f547	0.23824035
49	0x3e4f8fcc	0.20269698

classifier.3.weight f4 [10, 50]
0	0xbe537962	-0.20651773
1	0xbeb97906	-0.36225146
2	0xbdb80481	-0.08985234
3	0x3d775e82	0.060392864
4	0xbe0bcd0d	-0.1365244
5	0x3e0b5ce2	0.1360965
6	0xbebc6e45	-0.3680288
7	0xbd982a87	-0.074299864
8	0xbe5fdeea	-0.21862379
9	0x3de441c6	0.11145358
10	0xbed417f3	-0.41424522
11	0xbe230776	-0.15920815
12	0xbe1308e6	-0.14358863
13	0x3df6e684	0.12055686
14	0x3d0ca798	0.034339517
15	0xbe63eaeb	-0.22257583
16	0x3e02425d	0.12720628
17	0xbe7aa502	-0.24477008
18	0xbd9a21b8	-0.075259626
19	0x3dde8992	0.10866083
20	0xbe4d1673	-0.20028095
21	0xbe562aa5	-0.20914705
22	0x3d753188	0.05986169
23	0x3e2fb6fb	0.17159645
24	0xbe478c3c	-0.19487089
25	0xbda93589	-0.08262164
26	0xbeb518bb	-0.3537043
27	0xbe9a8b64	-0.30184472
28	0x3de4b700	0.11167717
29	0xbe7377aa	-0.23776117
30	0xba849971	-0.001011653
31	0x3e0edebc	0.13952154
32	0xbe955c98	-0.29172206
33	0x3dcd2ef0	0.10018718
34	0xbe6ffd0d	-0.23436375
35	0xbe88c390	-0.26711702
36	0x3d93ec33	0.07222786
37	0x3def718b	0.116915785
38	0x3de17c97	0.11010092
39	0xbdb795d3	-0.089641236
40	0x3da6032d	0.081060745
41	0xbe2b23fb	-0.16712944
42	0x3d4599b1	0.048242275
43	0xbd9b2646	-0.075756595
44	0xbebb7127	-0.36609766
45	0xbeb449c5	-0.35212532
46	0x3df1df83	0.118102096
47	0x3ddc8b2d	0.10768733
48	0x3e04e43e	0.12977692
49	0xbe6bff40	-0.23046589
50	0x3d9e2b1f	0.077230684
51	0x3e145e78	0.14489162
52	0x3e1997d2	0.14999321
53	0xbea749a6	-0.32673377
54	0x3def0fef	0.11672961
55	0x3e0bc5d5	0.13649686
56	0xbe526fba	-0.20550433
57	0xbe6813e3	-0.22663836
58	0xbd6d1e07	-0.057889964
59	0x3deb64f7	0.11493867
60	0x3daa1fa5	0.08306817
61	0x3d2e759b	0.042592626
62	0xbe68f732	-0.22750548
63	0xbebfd14e	-0.37464374
64	0xbe28f28f	-0.16498779
65	0xbccb49ac	-0.024815403
66	0xbe1e2aa3	-0.15445952
67	0x3da83996	0.08214109
68	0x3c3c9e22	0.011512311
69	0xbddb25bd	-0.107005574
70	0x3da33111	0.07968343
71	0xbdf8be8f	-0.12145721
72	0xbec89ec4	-0.3918363
73	0xbd9c33d0	-0.0762707
74	0xbed08020	-0.40722752
75	0xbe7fff2a	-0.24999681
76	0xbe61a93d	-0.22037216
77	0xbe93b23e	-0.28846925
78	0x3e186edc	0.1488604
79	0x3d900172	0.07031526
80	0x3e105fc7	0.14099036
81	0xbdbf7cde	-0.093499884
82	0x3d9c8e94	0.07644382
83	0xbe6333fc	-0.22187799
84	0x3d23e51d	0.04001342
85	0xbe6b08e9	-0.22952618
86	0xbe11405f	-0.14184712
87	0xbef59009	-0.47961453
88	0xbdf1363a	-0.11777921
89	0x3e23e042	0.16003516
90	0xbe7c23bf	-0.24623011
91	0x3e1dc05b	0.15405409
92	0xbe8a449b	-0.27005467
93	0xbe4c4c23	-0.19950919
94	0x3dd3534f	0.10318624
95	0x3dd68e2b	0.10476335
96	0xbe8ec7c5	-0.27886787
97	0x3e14b7e6	0.14523277
98	0x3e00591c	0.12533993
99	0x3e162b68	0.14664996
100	0x3ddd15b3	0.107951544
101	0xbe48830e	-0.19581243
102	0xbd5b92e7	-0.053606894
103	0xbc4ba0db	-0.012428488
104	0xbdfea0d9	-0.12433023
105	0xbdf5157f	-0.11966991
106	0xbdfe60cb	-0.124208055
107	0x3e243b05	0.16038139
108	0x3dd3bc22	0.10338618
109	0xbe3ea897	-0.18619
110	0xbe8ea118	-0.2785728
111	0xbe54b22a	-0.20771089
112	0xbdda4040	-0.10656786
113	0xbeb94382	-0.36184317
114	0x3d800623	0.062511705
115	0x3d8d76ac	0.069074005
116	0xbde79f16	-0.1130964
117	0xbe1761e3	-0.14783435
118	0x3e09658b	0.13417642
119	0xbe262d01	-0.16228105
120	0x3d948451	0.072518
121	0xbdbdb161	-0.09262348
122	0xbd08f7f2	-0.033439584
123	0x3e30a58e	0.17250654
124	0x3dc78fe0	0.09744239
125	0xbe17cb6a	-0.1482369
126	0xbde00e74	-0.10940257
127	0xbe0a359a	-0.1349701
128	0xbda1246d	-0.07868276
129	0x3dbfd1d8	0.093661964
130	0xbe6559f5	-0.22397597
131	0xbd483318	-0.04887685
132	0x3dbc9bbd	0.09209392
133	0x3d8767a6	0.06611566
134	0xbe5339e2	-0.2062755
135	0xbd12ccbd	-0.035839785
136	0x3daa4274	0.08313456
137	0xbe5b3165	-0.21405561
138	0x3dc3d808	0.09562689
139	0x3e1b3b13	0.15159254
140	0xbca5876d	-0.020206178
141	0xbde516c9	-0.111859865
142	0x3da92f00	0.08260918
143	0xbe49ea1e	-0.19718215
144	0xbe680607	-0.22658549
145	0xbd8d71f9	-0.06906504
146	0xbdb77e94	-0.0895969
147	0xbe90355a	-0.28165704
148	0x3e2146f1	0.15749718
149	0x3e0ba33e	0.1363649
150	0xbd6f4919	-0.05841932
151	0xbdfc83a7	-0.12329798
152	0x3e10c7aa	0.14138666
153	0xbe3a3075	-0.18182547
154	0xbf016242	-0.50540555
155	0xbe9cb29b	-0.30605015
156	0x3ddc3ea2	0.10754134
157	0x3d849339	0.06473393
158	0x3d266a2d	0.0406286
159	0xbe892d92	-0.2679258
160	0x3de3e5ab	0.1112779
161	0x3d5e70b9	0.05430672
162	0x3dc65c65	0.096855916
163	0xbe5f906f	-0.21832441
164	0x3d5ff514	0.054677084
165	0x3d9167c8	0.07099873
166	0xbdc43313	-0.09580054
167	0x3dda1877	0.106491975
168	0x3e036e27	0.12834989
169	0xbe1c5997	-0.15268551
170	0xbe72fa63	-0.23728327
171	0xbdf07133	-0.11740341
172	0x3d8473d0	0.06467402
173	0xbe3ab528	-0.18233168
174	0xbe47783b	-0.19479458
175	0xbe8044f7	-0.25052616
176	0xbdf724fb	-0.120676
177	0xbe000e16	-0.12505373
178	0xbec9ab41	-0.3938847
179	0x3dae6424	0.08515194
180	0xbe3008a9	-0.17190804
181	0xbd47195a	-0.04860816
182	0x3da20d73	0.079127215
183	0xbe07cede	-0.13262507
184	0x3e14412b	0.14477985
185	0xbe01f718	-0.12691915
186	0x3cee3071	0.029075833
187	0xbe3dbcbf	-0.18529032
188	0x3dbfa638	0.093578756
189	0xbe380e99	-0.17974319
190	0x3d9c3ac8	0.07628399
191	0xbe5967c0	-0.21230984
192	0xbdeb1628	-0.11478835
193	0x3e008655	0.12551244
194	0xbe2f98a3	-0.1714807
195	0x3e083d07	0.1330453
196	0xbd98aa47	-0.07454353
197	0xbe7cb41e	-0.24678084
198	0xbdc3ee44	-0.0956693
199	0xbe5011e4	-0.20319325
200	0xbde5ec71	-0.11226738
201	0x3e1bddf7	0.15221392
202	0xbe5da663	-0.21645503
203	0xbe5033ed	-0.20332308
204	0x3dfa315d	0.122164465
205	0x3cb87be4	0.022520013
206	0x3ddba0cc	0.10724029
207	0x3e24eb27	0.16105329
208	0xbe74fb7e	-0.23924062
209	0xbe6ac454	-0.22926456
210	0x3daa2597	0.08307951
211	0x3d96a309	0.07355315
212	0xbda5fe7d	-0.081051804
213	0xbc788349	-0.01516802
214	0xbe43913f	-0.19098376
215	0xbea7103a	-0.32629567
216	0x3d0fa9a3	0.035073888
217	0xbe4c3210	-0.19940972
218	0x3e0629f5	0.13101943
219	0xbe2ba405	-0.16761787
220	0x3d9b72a5	0.07590226
221	0x3e401fd5	0.18762143
222	0xbe8c75e4	-0.27433693
223	0x3d62fe89	0.055418525
224	0x3dbc980f	0.092086904
225	0x3e12b68b	0.14327447
226	0x3dafa0a1	0.085755594
227	0x3df983e3	0.121833585
228	0x3e1fe234	0.15613633
229	0xbe75f8c6	-0.24020681
230	0xbddf3e95	-0.109006085
231	0xbd82f2a8	-0.06393939
232	0xbdb03ee2	-0.08605744
233	0x3db8d4b4	0.09024945
234	0xbe047491	-0.12935092
235	0x3dd83c60	0.105583906
236	0x3c59fd3d	0.013305006
237	0x3e1df5ab	0.15425746
238	0x3df7a298	0.12091559
239	0x3e0ec598	0.13942564
240	0xbe9ed03d	-0.31018248
241	0x3e110830	0.1416328
242	0xbe81e69e	-0.2537126
243	0xbe813881	-0.25238422
244	0x3e047eab	0.12938945
245	0xbde83322	-0.11337878
246	0xbe567649	-0.2094356
247	0xbdf44e5e	-0.1192901
248	0xbc6c749d	-0.0144321
249	0xbd9d7c35	-0.07689706
250	0xbe21735e	-0.15766665
251	0xbe6045a7	-0.2190157
252	0x3e1a962a	0.15096346
253	0xbbfae68c	-0.007656878
254	0x3d864e12	0.065578595
255	0xbe1c521b	-0.15265696

classifier.3.bias f4 [10]
0	0x3e8d82ff	0.27639005
1	0x3e9c34c7	0.30509016
2	0x3e45cb40	0.19315815
3	0x3bf462e9	0.00745808
4	0xbedebb15	-0.43502107
5	0xbecc9ffc	-0.39965808
6	0xbe38344f	-0.17988704
7	0xbe881194	-0.2657591
8	0x3d5cb2a6	0.05388131
9	0x3ecea706	0.40361804
