Domain_Adaptation/trained_models/source.pt (torch, 92660 bytes, 8 tensors)

feature_extractor.0.weight f4 [10, 3, 5, 5]
000000 63 20 1c 3d 43 72 32 be 37 d4 08 3c bd 57 0f 3d
       0.038116824 -0.174264 0.008351377 0.034995783
000010 17 62 31 3e 3e c2 59 3d b7 e1 9a bd e9 a9 b4 be
       0.17322575 0.05316376 -0.07562583 -0.3528588
000020 39 37 9c be d4 95 1a be 29 61 a6 3d f3 46 d7 3d
       -0.30510882 -0.15096217 0.081240006 0.10511579
000030 88 51 3b 3e b4 c8 a3 bd 06 3b c5 bd af 4e ba ba
       0.1829282 -0.079972655 -0.096303985 -0.0014214123
000040 d9 bb b7 3d 88 8d 3c 3d 93 f5 42 3e 95 37 80 bd
       0.08971376 0.046033412 0.19038992 -0.062606014
000050 ea 20 0c be aa c6 02 bd 5a 61 65 3c e3 a1 76 3e
       -0.1368443 -0.031927742 0.014000261 0.24085192
000060 f4 6e d2 bb e7 d4 16 be 5f 2b 2e be 91 c9 fe bd
       -0.006421918 -0.14729653 -0.17008732 -0.124407895
000070 47 5f 22 3d 83 85 6d 3e 7f ae 17 3e 4e b4 ce bb
       0.039641645 0.23195462 0.14812659 -0.006308115
000080 0d 50 e1 be a1 1d 34 be fb 5a 74 be 31 52 32 3e
       -0.44006386 -0.17589428 -0.23862831 0.17414166
000090 33 16 4e 3e 42 cf 93 3a dd d5 38 be c1 a4 10 be
       0.20125656 0.0011276978 -0.18050332 -0.14125349
0000a0 73 bf c1 bc df 20 c9 3d 98 f7 c6 3d 95 a5 7a 3d
       -0.02365086 0.09820723 0.097151935 0.061193068
0000b0 a4 70 00 3d 6a 50 c3 bd 90 ee 68 3d 9b 92 2e 3e
       0.031357422 -0.09536822 0.056868136 0.17048113
0000c0 db e9 7d 3d 93 9a e4 3d 82 20 9c bd 0f ba 0d be
       0.0619906 0.11162295 -0.07623388 -0.13840507
0000d0 57 45 90 bd 30 17 18 3e 12 7f 6a 3e 21 b1 98 3d
       -0.070444755 0.14852595 0.22900036 0.0745566
0000e0 97 33 fe bd 57 8e e3 be 2b eb a5 be c6 30 8e be
       -0.12412184 -0.44444534 -0.3240598 -0.27771586
0000f0 8b 46 37 3e 55 52 1a 3e 5f 2f b2 3d 23 78 20 bd
       0.17898004 0.1507047 0.087004416 -0.03917707
000100 0c 0f 0c be 35 8c 0f 3d 42 08 6d 3e 72 c4 a7 3d
       -0.13677615 0.03504582 0.23147681 0.08191766
000110 cf d1 89 3d 37 5c 9c bd 0e fb d6 3c 7d 7e 67 bc
       0.06729471 -0.07634776 0.02624276 -0.014129278
000120 5e 02 12 3e 56 46 9c 3d 49 3e a9 3c 93 35 35 bd
       0.14258716 0.07630603 0.020659583 -0.044240545
000130 69 cc 8f b7 31 26 d4 3d 2b ac 10 3e 90 7c 45 bd
       -1.7142114e-05 0.10358847 0.14128177 -0.048214495
000140 e8 4c 1f 3e 13 6d 46 bd 56 6b ba 3d d6 c4 2d bc
       0.15556681 -0.048443865 0.09102504 -0.010606011
000150 e2 78 78 3d 1e 7f 0d be a4 a3 14 3c b8 6e c1 3d
       0.060662158 -0.13818023 0.009072218 0.09444946
000160 0f 52 ea 3c 33 be ea 3b af c3 84 be 7c d9 06 bd
       0.028603582 0.007163787 -0.25930545 -0.032922253
000170 bd 77 61 bc 82 2c c2 3d 70 dc 94 3e 53 b1 d3 be
       -0.013761458 0.094811454 0.2907443 -0.41346225
000180 85 30 1a be ea c9 8c be 05 4a f5 bd eb b7 a9 3d
       -0.15057571 -0.27497798 -0.11977009 0.08287033
000190 fc 77 36 3d 6f 5a 0a 3c e9 9f 44 3c e7 8f 00 3e
       0.04454802 0.008444413 0.012001016 0.12554894
0001a0 aa 9a 55 bc 5f 2c 06 3e 7c f8 8f bc 78 8d 5e bd
       -0.013037363 0.13102864 -0.017574541 -0.054334134
0001b0 b1 34 ca bc 4f 50 1a 3e 7d ce 2d be 89 d0 bf 3c
       -0.024683328 0.15069698 -0.169733 0.023414867
0001c0 80 eb a1 bd cb 4b 08 3d 05 83 de 3d 0f 20 42 be
       -0.07906246 0.033275407 0.10864834 -0.18957542
0001d0 3e 0d 85 bd f4 2b 9b bd 6e ce 35 bd ab 86 8e 3e
       -0.06496666 -0.07576743 -0.04438632 0.27837119
0001e0 59 07 07 bf 12 cb 1c be 11 82 14 be dc d2 21 be
       -0.52745587 -0.1531184 -0.14502741 -0.15803093
0001f0 71 39 d0 3d f0 ae 8a bd d8 46 2f bc cb bb 1b 3e
       0.10167206 -0.06771648 -0.010698043 0.15208356
000200 d7 06 1b 3d 32 d7 40 3c 1d 9d 43 3d 6a 31 c1 bd
       0.03784832 0.011770057 0.047757257 -0.09433253
000210 a7 c3 07 be 09 a6 6e bd d1 39 2c bd 4c 9a 11 be
       -0.13258229 -0.058263812 -0.042047326 -0.14219016
000220 71 a7 42 3d dd c1 a5 bd 1e b3 80 3c 27 36 1a 3e
       0.047522966 -0.08093617 0.01571041 0.1505972
000230 60 98 a7 bd 9c 1d 1c 3d 3a 40 ac 3a a8 4a dc bb
       -0.0818336 0.038114175 0.00131417 -0.006722767
000240 4b 45 af 3e 31 96 08 bf c2 aa a6 be 8e cc 5a be
       0.34232554 -0.53354174 -0.32552153 -0.21367094
000250 76 e0 e9 bd 27 59 4f 3e 45 a0 87 be 7a 08 12 bd
       -0.11419766 0.20248853 -0.26489463 -0.035652615
000260 c6 48 85 3d 0b 96 1c bc 5d cc 01 be a6 0d ed be
       0.06508021 -0.009557257 -0.12675615 -0.46299475
000270 cc 37 08 be 01 1b 55 be a7 be ec bd ed 54 e4 bc
       -0.13302535 -0.20811082 -0.115598015 -0.027872527
000280 be c2 35 be 41 f7 97 3d 8b 12 69 3d c1 3e a0 3d
       -0.1775007 0.07420207 0.05690245 0.07824469
000290 51 0b 18 3e 4c ff 93 3d 39 5f 60 3b f4 59 f5 3d
       0.14848067 0.072264284 0.0034236445 0.11980048
0002a0 7f 9b 0a 3e 9a 97 fc 3d 8d 52 ce 3d a1 e6 c3 bd
       0.1353588 0.12333603 0.10074339 -0.09565473
0002b0 3d 95 c4 bd 9a bf ba bd ce 73 d0 3d ca 81 a4 be
       -0.095987774 -0.09118576 0.10178338 -0.3213027
0002c0 75 73 2e 3e 89 e5 91 bc 39 55 81 bd 69 29 b9 bd
       0.17036231 -0.017809646 -0.06315083 -0.090411015
0002d0 29 1b 02 bf 31 8d 39 be fa 91 50 be 6c 11 f3 bd
       -0.50822693 -0.18120266 -0.20368186 -0.11868557
0002e0 9f d6 1d 3e 60 51 90 be 17 fd 6e bd 6d 91 9a bd
       0.15413903 -0.28187084 -0.058346834 -0.07547269
0002f0 64 ae 8b 3d 7f e1 d1 3d 9f 69 8d bd 7c 9a d6 3d
       0.06820372 0.10248088 -0.06904911 0.10478684
000300 f5 c8 3a 3d 3b 7a 46 3d 77 d0 33 3e 21 84 e8 3d
       0.045601804 0.04845641 0.17559992 0.113533266
000310 17 6e 87 3c aa 24 7b 3c c4 01 6f bd 0d 71 1c 3e
       0.016531987 0.015328566 -0.058351293 0.152775
000320 1b d7 54 be c9 1a 8c 3a c2 f6 81 bc d3 67 ec 3c
       -0.20785181 0.0010689135 -0.015864734 0.028858101
000330 65 df 86 3c 80 a0 f7 be 7e 98 80 be 71 bc 20 be
       0.016463945 -0.4836464 -0.25116342 -0.15696885
000340 ff b7 5b 3c a7 89 5a 3d df 5a 4a be f9 02 a3 3c
       0.013410567 0.05335393 -0.19761227 0.019898878
000350 ae 0a a4 3b b0 c9 4c 3e 8d e5 01 3e 14 bf ee 3d
       0.005006156 0.19998813 0.12685223 0.11657539
000360 58 20 5d 3e ba 4f f8 bc 56 d3 1e 3e 39 dc 3e 3d
       0.2159437 -0.030311454 0.15510306 0.04659674
000370 f1 99 8e 3d 7c ff 76 3d 61 cb 4d bd 69 12 0e 3d
       0.06962956 0.060302243 -0.050242785 0.034685526
000380 43 de 0d ba a9 cd de bd 8b b6 a4 bd 4b e9 90 3d
       -0.0005411843 -0.1087907 -0.0804263 0.07075747
000390 69 37 ad 3d a6 1e 73 bd ed 9e a4 bc f6 0a ab 3d
       0.08457834 -0.0593554 -0.020095313 0.083517
0003a0 1e 64 01 3e 5c 82 56 3a 4d 45 47 bd 2f 8a 50 3d
       0.12635848 0.0008182877 -0.048650075 0.050913032
0003b0 80 59 e8 3d 15 d9 a0 ba a7 5c c1 bd 6c 4b 83 3d
       0.11345196 -0.0012271727 -0.094415 0.0641087
0003c0 25 78 e2 bd 51 2e 9d 3d 80 af 52 3c 5a 59 11 3e
       -0.11058072 0.0767485 0.012859225 0.14194241
0003d0 b4 fe 16 ba 6f 69 76 3d 6c 2b ed 3c c6 be 1a 3c
       -0.00057599996 0.060159143 0.02895137 0.009444898
0003e0 b2 9f 59 3d 97 02 6b bb 5b f4 12 be 72 e5 e2 3c
       0.053130813 -0.0035859698 -0.14351027 0.027697299
0003f0 ed c0 04 3e 49 ae f8 bc 48 1e 76 bd 0b 68 bf bd
       0.1296422 -0.030356543 -0.060087472 -0.093460165

feature_extractor.0.bias f4 [10]
000000 01 ad 2c bd 9c 5a 88 be de bd c7 be 3d d7 f9 be
       -0.042157177 -0.2663163 -0.39012045 -0.48797026
000010 17 53 05 bf 9e 7f 65 3d 84 a3 9b 3d ca db be be
       -0.5207991 0.05602991 0.075995475 -0.3727706
000020 9f 71 d6 be 38 56 23 bc
       -0.4188356 -0.009969287

feature_extractor.3.weight f4 [20, 10, 5, 5]
000000 98 33 27 bd 34 66 05 be 3e 83 33 be 0a c3 92 bd
       -0.040820688 -0.13027269 -0.17530534 -0.07166107
000010 25 e3 e1 3c a9 2c ea bd f4 16 cd bd 74 b4 0e be
       0.027574131 -0.114342995 -0.100141436 -0.13936025
000020 77 d2 83 be a4 2b dd bd 14 fb c9 bd 00 0d 04 be
       -0.2574651 -0.107993394 -0.098623425 -0.12895584
000030 7b c9 30 be c4 72 70 be 82 32 0b be c3 85 96 bd
       -0.17264359 -0.2348128 -0.13593486 -0.07349732
000040 fc 32 9d bd a8 36 dd bd f2 37 0f bd b3 50 6d bc
       -0.0767574 -0.108014405 -0.034965463 -0.014484572
000050 7d 91 d0 3d d9 5d 1c bd ba 4b 95 3c 87 e0 64 3d
       0.10184 -0.038175438 0.018224586 0.05587819
000060 75 dc 89 bc 02 72 d3 3d a6 03 d8 bc 31 9e 00 be
       -0.016828755 0.1032448 -0.026368927 -0.12560345
000070 dd 85 ce bc e9 c4 d5 bd 85 a1 52 3e b5 46 20 3e
       -0.025210315 -0.10437948 0.20569427 0.15651973
000080 12 1c a7 bd 20 24 3f bd a5 02 89 3c e2 d2 ab 3d
       -0.08159651 -0.04666531 0.016724894 0.08389832
000090 28 13 10 3e b0 35 b8 3d ef 16 81 3d 0d 84 30 3d
       0.14069808 0.08994615 0.06303202 0.043094683
0000a0 a9 ba 61 3d 84 06 78 3e 99 e9 4b 3e 9c d6 ea 3d
       0.055109654 0.24221236 0.19913329 0.11466715
0000b0 3a ad 4f 3d cc 2f 9e bd da cc fd bd 30 23 c7 bc
       0.05070231 -0.0772396 -0.12392588 -0.02430877
0000c0 3e 35 b7 3a 67 43 64 be e1 71 a4 bd e2 23 26 3d
       0.0013977659 -0.22291337 -0.08029533 0.040561564
0000d0 7d fc bd 3d e9 b6 8e bb b1 6e 06 3e 60 47 02 be
       0.09276674 -0.0043553007 0.13128163 -0.1272254
0000e0 f4 2d 81 bd 69 da 11 3e e6 10 84 3e 61 c4 2e 3e
       -0.06307593 0.14243473 0.25794142 0.170671
0000f0 49 f6 80 bd 1d 4d 13 bd 19 81 2f bc 62 9f 1b 3e
       -0.06296975 -0.035962213 -0.010711932 0.15197518
000100 00 52 b0 be 9e 2c 83 bd e9 d2 48 3d 3f 35 34 3e
       -0.3443756 -0.064049944 0.049029265 0.17598437
000110 14 b6 fb bd 52 5f 9f be bb 56 1e bd 37 3e c6 3d
       -0.12290588 -0.3112741 -0.03865693 0.09679835
000120 71 3c a4 bd b2 ac a8 be 04 76 8c be 74 32 fe bc
       -0.08019341 -0.32944256 -0.2743379 -0.031029917
000130 d5 ee 83 bc 0e a6 cb 3d 7b ac c7 3d 44 80 fc 3c
       -0.016105095 0.09943782 0.09749695 0.03082288
000140 65 25 6b bd 5a 02 df bd d1 18 45 3d e7 03 ad 3d
       -0.05740871 -0.108891204 0.04811937 0.0844801
000150 4e a2 b9 3d 05 52 06 be 1f 78 ca 3d 6b d6 9c 3c
       0.0906416 -0.13117225 0.098861925 0.019145211
000160 72 94 a2 bc 65 e5 1d be 0e 5a 9a bd 11 ce 9d 3d
       -0.019846175 -0.15419538 -0.07536708 0.0770532
000170 24 00 94 3d 8f f2 6b bc 83 ff 95 be f9 a2 2d 3d
       0.07226589 -0.014401092 -0.29296502 0.04239175
000180 b0 1f 31 3d 10 07 29 3c bb f6 e0 bd 5d 32 9f be
       0.04324311 0.010316625 -0.1098456 -0.31093112
000190 94 ff d6 3c d3 8a 3c be 2c ee 27 bd 44 67 0f 3e
       0.026244916 -0.18412332 -0.040998623 0.14004236
0001a0 a2 b2 f5 3c 72 1b 97 bd 53 0b 04 3d ac 5f c0 3d
       0.029992405 -0.07378282 0.032237362 0.09393248
0001b0 15 3f 35 3e e6 07 e8 bb 18 9e 52 3c 03 f9 0d 3e
       0.17699845 -0.0070810197 0.012855075 0.13864522
0001c0 8e 5a dd 3d a9 23 1d 3e d7 dd d5 3c c1 27 bd bd
       0.108082876 0.15345635 0.026106758 -0.09236098
0001d0 4e df 69 3d 94 e8 c4 3b 6c ec dc bb 0f 30 a9 bc
       0.057097726 0.006009171 -0.006742051 -0.020652799
0001e0 1c 0b 1c bd 8a 9a 05 bd 20 1d 8f bd be ce a5 bd
       -0.038096532 -0.032618083 -0.06987977 -0.080960736
0001f0 30 b5 07 3e fe 02 57 3e 08 33 af 3c 5f 47 63 3e
       0.13252711 0.20997235 0.021386638 0.22195195
000200 29 87 15 be d9 e3 56 bd 1d 57 51 3e f6 6f 8b 3b
       -0.14602341 -0.052463386 0.20443387 0.00425529
000210 81 97 a2 3d b8 89 10 3d b2 a7 b3 3d fe 37 ed 3d
       0.07939053 0.03528759 0.0877222 0.11582945
000220 30 c5 cf 39 ba cd 86 3d d1 3d e5 3c ca 66 56 3d
       0.00039629033 0.06582208 0.027983578 0.05234412
000230 1f c9 cc bd 09 3e 87 bd 58 fd 2a 3d 03 5d 21 bd
       -0.09999298 -0.06603629 0.041745514 -0.039395344
000240 c8 e0 0d 3d 27 61 1b 3e 02 3a d3 bc e6 ee 64 bd
       0.034638196 0.1517378 -0.025784496 -0.055891894
000250 17 e0 96 bd c4 68 35 3e dd b8 98 bd d5 14 70 bd
       -0.073669605 0.17715746 -0.07457135 -0.058613617
000260 b9 44 c1 bd 1f 16 b9 bd c3 bd a2 bc 0a 6f ca 3d
       -0.09436936 -0.090374224 -0.019865876 0.0988446
000270 e2 04 e3 3c 70 31 02 be 9a 12 90 3d f1 e2 09 3e
       0.02771229 -0.12714171 0.07034798 0.13465478
000280 5b 99 1d bd 17 cc 56 be 1f 47 c8 bd 40 30 8f bd
       -0.03847633 -0.20976292 -0.0977919 -0.06991625
000290 e2 0d 40 bd ef 44 bb bc 34 bf 44 bd ba 1f ce bc
       -0.04688824 -0.022860019 -0.048033908 -0.025161613
0002a0 58 31 c3 bc 60 d1 c4 bb 79 3a 8a be a9 94 06 be
       -0.02382724 -0.0060064048 -0.26997736 -0.13142647
0002b0 76 e7 4a bc e4 67 e3 3d 12 36 6b 3d d8 8e 3b 3d
       -0.012384286 0.111038 0.057424612 0.045790523
0002c0 f5 34 31 3d 1f e8 ad bd a1 07 ca 3c 1e 4d 25 3e
       0.043263394 -0.08491539 0.02466184 0.16142699
0002d0 29 82 3f be d0 1c bf 3d cb 9d d3 3d 37 4b ab 3d
       -0.18701996 0.093316674 0.10332831 0.083639555
0002e0 e8 2f 2a 3e 45 7b 0f be 7d 6b a3 3d 13 be 0b 3e
       0.16619837 -0.14011867 0.07979486 0.13646726
0002f0 92 52 77 bc 6f 7e e0 bc e3 5a 90 bd 59 ab 1f 3d
       -0.01509537 -0.027404038 -0.07048585 0.03898177
000300 af 65 df 3d 1a 46 74 bd 09 d3 1b be 08 e1 e8 bd
       0.109080665 -0.059637167 -0.15217222 -0.11371046
000310 58 ac 0f be 85 2c 7e bd eb c1 2f be d1 4f ed 3d
       -0.14030588 -0.062054176 -0.17163818 0.115874894
000320 d1 d8 19 be a2 a9 5c bd 3d 64 7a be 30 20 c3 3d
       -0.15024115 -0.053872712 -0.244523 0.09527624
000330 d5 6b eb bc e5 c2 e4 bd 8b fb 4e 3c 62 ea a6 bd
       -0.028737942 -0.11169986 0.012633215 -0.08150174
000340 dd ae b3 3d 78 47 3f be 44 0a dd bd ee df 99 bc
       0.08773587 -0.18679607 -0.10792974 -0.018783536
000350 e8 1f f8 3d 67 f6 86 3d 73 32 0b 3c 4e 22 d9 3c
       0.12115461 0.06589966 0.008495915 0.026505616
000360 7b 92 2c 3e 07 17 01 3e bd 8d eb 3d 21 31 8b 3e
       0.16852753 0.1260644 0.11501644 0.2718592
000370 aa 97 03 be e0 fe 62 bc f9 2c d6 3d 6e 5d 83 3d
       -0.12850824 -0.013854712 0.104577966 0.06414305
000380 cd 80 a3 3d 6d c3 c7 3d c8 0a c0 bd 24 f0 17 3e
       0.07983551 0.097540714 -0.09377056 0.148377
000390 05 ef e3 3d d7 a9 9b bc 3b 7d 71 3d b1 a2 9b bd
       0.11129574 -0.019001884 0.05895732 -0.0759939
0003a0 53 3f 3e 3e 8f 87 15 3d f5 23 5b bd 37 4e 61 3e
       0.18578844 0.036506232 -0.05350109 0.22002493
0003b0 34 84 1c 3c c3 b2 27 3c 38 cd 47 3c 3d ee 40 be
       0.009553004 0.010235491 0.012194924 -0.1884088
0003c0 94 8a a1 3d 85 9e 62 bd 84 0d 38 bd ee 1c c8 bd
       0.0788776 -0.055326957 -0.044934765 -0.09771143
0003d0 c3 d3 23 be a7 f0 68 bc 0c 98 95 bd 1a 57 1a be
       -0.1599875 -0.014217532 -0.07304391 -0.15072289
0003e0 51 08 80 be 25 16 8b bd 93 4b 74 3e b4 2e e7 3d
       -0.25006345 -0.06791333 0.23856954 0.11288205
0003f0 57 a8 db bc 8b 3b 9a bd 7b 64 25 3c b0 3e df 3d
       -0.02681367 -0.07530888 0.010094757 0.109006286

feature_extractor.3.bias f4 [20]
000000 7f 21 ca bd 26 52 0b be 4d c7 22 bd 2a ff 79 bd
       -0.0986967 -0.13605556 -0.03974085 -0.06103436
000010 58 08 00 be 20 0d 08 be 23 d3 05 be d8 00 c6 bd
       -0.12503183 -0.13286257 -0.13068824 -0.0966813
000020 83 c1 84 bd dd ed 45 be ca b3 80 bd 8c fe 7b be
       -0.06482222 -0.19329019 -0.06284292 -0.2460882
000030 1f 3f 88 3d a8 d2 47 bc ac 56 92 bd df dd 06 3d
       0.066526644 -0.01219622 -0.071454376 0.032926437
000040 26 f8 e6 3d 59 e1 8c bd 57 5e 95 bd f1 ba f0 bd
       0.11277799 -0.06878919 -0.072933845 -0.11754406

classifier.0.weight f4 [50, 320]
000000 f4 9f db 3d 3d 87 ef 3c 91 3d 2d 3e 23 db 8b bc
       0.10723868 0.029239291 0.16918017 -0.017072266
000010 c1 c5 0a be 8e 1e bf ba 82 3d 15 be 1f 7c fc bc
       -0.13552 -0.001458125 -0.14574245 -0.030820904
000020 0f f8 f8 bd 96 04 5f bc 69 11 bb bd 04 41 45 bd
       -0.121566884 -0.013611933 -0.0913418 -0.048157707
000030 e1 87 1a 3e d9 b0 14 bd a2 81 e9 bd 30 e3 46 be
       0.15090896 -0.036301468 -0.114016786 -0.19422603
000040 b9 b4 6b 3d bc fa 9d bb cc 8d 10 3e 31 4f 6c 3d
       0.057545397 -0.0048211496 0.14116591 0.05769271
000050 5a a9 d4 3d dd 62 64 bc 47 3a 86 3c 74 ff 06 3e
       0.10383864 -0.0139395865 0.01638521 0.13183385
000060 44 6f e4 bd e3 ec ad bd d2 0c 19 3d a1 2e 10 3e
       -0.11154035 -0.08492448 0.037365742 0.14080288
000070 02 df 5e bd 7f 02 57 3d fb 7e 82 bd c4 ed 4d bd
       -0.054411896 0.052492615 -0.06371876 -0.05027558
000080 04 bb 61 bd 14 f9 e8 bd a3 9c c3 bd bc d3 4e 3e
       -0.055109993 -0.11375633 -0.095513605 0.20197958
000090 00 47 2b ba 17 e3 e5 3c 6f 74 30 3d f0 ff a9 bd
       -0.0006533712 0.028062386 0.04307979 -0.08300769
0000a0 79 fe 9b 3e 62 19 cf bc 8d 44 03 bd b0 0e 8b bd
       0.30467585 -0.025280658 -0.032047797 -0.06789911
0000b0 e9 50 c9 bb ce 29 0d bd af 36 e2 3d 89 45 6a 3d
       -0.0061436784 -0.034463696 0.11045586 0.05719522
0000c0 72 8e 0e 3d 8a fc 8e 3c 42 95 e8 3b f9 16 02 3e
       0.034803815 0.017454404 0.007097871 0.12704076
0000d0 73 f9 4c 3c 62 f1 1f 3d 1e a3 c6 3d 59 2b 90 3d
       0.012510645 0.03904856 0.09699081 0.07039518
0000e0 51 92 ee 3c 6c d6 2b be bb fd d0 bc c4 6d 17 be
       0.029122503 -0.16781014 -0.025511613 -0.14787966
0000f0 51 50 0f 3e ea 9a 84 bd 2b 13 ef bd 5a a1 9d bc
       0.13995482 -0.0647486 -0.11673578 -0.019241977
000100 a2 58 14 bd ac df 9d 3d ff 28 75 bc b2 3e 3c 3e
       -0.03621734 0.07708678 -0.0149633875 0.18383291
000110 65 23 6f 3d e6 d5 3d bd f2 e7 38 bc 2d 20 0a 3c
       0.058383364 -0.046346568 -0.011285769 0.008430523
000120 14 19 5b 3e 2f e6 2c bd 44 7b c5 bd 57 1b 1a 3e
       0.21396285 -0.042211708 -0.09642652 0.15049492
000130 c1 4c a3 bc 8f da ca 3c b0 1a 22 be 8c ab 1d be
       -0.01993406 0.02476242 -0.15830493 -0.15397471
000140 b8 1f 90 3c 88 ba 9c 3c e4 d4 7e bc 3e ad 8f 3b
       0.01759325 0.019131914 -0.015553687 0.0043846657
000150 73 f0 1f 3e 15 5e 20 3e 3e b5 81 bc 5e 81 c9 3d
       0.15619068 0.1566089 -0.015833493 0.09839128
000160 8f b7 0a bd ee bd 13 3e 26 f9 b7 bd 0b ec 7b 3d
       -0.03386646 0.14427921 -0.08983068 0.061504405
000170 fe cb 9b 3c a6 70 3e 3d 05 ac 26 3e 94 90 4b 3e
       0.01901817 0.04649415 0.16276558 0.19879371
000180 87 8e ca bd 6c 6e 2a bd cd 3b a2 bd 06 d1 72 be
       -0.09890466 -0.041609213 -0.07921562 -0.23712549
000190 f6 f8 c5 bd 76 fc 65 be f8 90 83 3c ad f2 1c 3e
       -0.09666626 -0.22459587 0.016060337 0.15326948
0001a0 e7 9b 4b 3e b1 2e 40 be 98 58 ae bd 35 02 1e 3c
       0.19883691 -0.18767811 -0.08512992 0.009644081
0001b0 c8 87 56 3e cf 6d 32 be ff 5d 14 be ce 35 74 3b
       0.20950234 -0.17424701 -0.14488982 0.0037263515
0001c0 4c 47 20 bd 22 13 e0 bd aa cb 35 bc b9 47 1c bd
       -0.039130494 -0.10941149 -0.011095921 -0.038154338
0001d0 3f 54 01 3d 32 4c 70 bc c0 d6 30 3e 5d 82 7b 3d
       0.031574484 -0.014666604 0.1726942 0.06140362
0001e0 67 2e 32 bd 04 0e b9 bd 82 f3 47 3e 8b 83 f9 3d
       -0.043501284 -0.090358764 0.19526485 0.12183293
0001f0 22 69 55 be da 67 39 be 91 c0 af bd 29 e1 5b be
       -0.20840886 -0.18106022 -0.08581651 -0.2147261
000200 c0 f8 16 bd 10 dd 01 3d 8f 60 50 bc 3e 47 26 3e
       -0.03685832 0.031704962 -0.012718334 0.16238114
000210 c0 ff d9 3d c7 84 26 be 5e 47 1f bc 9b 3e 17 3e
       0.106444836 -0.16261588 -0.009721605 0.14769976
000220 9a 22 aa bd 0e a0 80 37 da d3 9d 3d 34 b4 93 3d
       -0.08307381 1.533332e-05 0.07706423 0.072121054
000230 46 6a 38 3e 1f b7 4a bb 5f d0 89 bd c7 d9 e8 3c
       0.1800929 -0.0030931903 -0.06729197 0.028424157
000240 68 1a eb 3d 63 03 f6 3d 39 5a e1 bb 2d 01 3c bb
       0.11479646 0.12012365 -0.0068772105 -0.0028687224
000250 34 b0 06 be c4 39 49 be 2d 9d 91 bb 58 da 66 bc
       -0.13153154 -0.19650942 -0.0044437856 -0.014090143
000260 15 b9 07 3d 10 4d 6b be 16 2b 77 3c a7 cb db bd
       0.033135492 -0.22978616 0.015085956 -0.10732203
000270 5d 56 cb bc 2f fa d0 3a 55 f2 cf bd 80 7f 16 be
       -0.024821455 0.0015943701 -0.10153643 -0.14697075
000280 4a 61 24 3e 4f 16 26 3d 1b f9 ff 3d 28 f4 ac 3e
       0.16052738 0.04054862 0.12498685 0.33780026
000290 72 3a 95 bc 8b ef 4b be f8 0b 50 bd e7 9e 44 3e
       -0.018216345 -0.19915597 -0.050792664 0.19201241
0002a0 5c 04 8a be 18 45 75 be 8d 0b 8f bc 1f c3 99 bd
       -0.2695645 -0.23952138 -0.017461563 -0.075079195
0002b0 9c 74 18 3e 8a 73 e4 3b 3b 5c 9d bd 0e 48 79 be
       0.14888233 0.006971781 -0.07683607 -0.24343893
0002c0 d5 bf 0b 3e ae 9b 10 3e 65 82 3f be a8 af a6 3c
       0.13647397 0.14121887 -0.18702085 0.020347431
0002d0 4c 8c ac 3d 0b 18 84 3d 5f 2a 40 bd 28 2e b7 bd
       0.08425197 0.06449898 -0.04691541 -0.089443505
0002e0 2e d0 1c bd f8 99 ec bd 1b 33 57 3c e6 07 18 3d
       -0.038284473 -0.11552805 0.013134743 0.037116908
0002f0 e3 55 51 3e 73 47 17 bd 37 6a ad 3d a2 9b 7d bd
       0.2044292 -0.036933374 0.084675245 -0.061916
000300 5f d2 57 bd 81 5e 5d 3d 8e 3c 58 3d 41 dc c2 bd
       -0.05269086 0.054045204 0.052792124 -0.09514666
000310 10 60 fe 3d 6d e6 07 3e f7 bf 1b 3d c1 99 34 be
       0.12420666 0.13271494 0.03802487 -0.17636777
000320 ca 0c 04 bd e7 b7 bc bd 68 a8 c8 3a 3c f1 e0 3d
       -0.03223876 -0.09214764 0.0015308978 0.10983512
000330 e1 e3 e3 3d c8 86 9a 3d de 34 14 3e 4e 27 31 3e
       0.11127449 0.07545239 0.14473292 0.1730015
000340 d7 0e 89 3c f5 a5 2d bd 8b 6b d1 3c 42 de cc bd
       0.016730709 -0.042394597 0.025563976 -0.1000333
000350 6a a0 8b bd 34 6d df bc 8c 1e b0 bd a2 ea c3 3c
       -0.06817706 -0.027273752 -0.08599576 0.023915593
000360 88 97 16 3e fa 16 0a 3e fc c1 cf bd 6c 3b 30 be
       0.14706242 0.13485327 -0.101444215 -0.17210168
000370 45 8c c6 bc b2 82 9f bd 24 df 74 3c 16 07 df 3d
       -0.024236808 -0.077886 0.014945779 0.108900234
000380 0e 79 9e bd 2e ea 68 bd 1d 4a ab 3d 1c 8a 11 3e
       -0.07737933 -0.056863956 0.08363745 0.14212841
000390 80 79 ab 3d 31 9a 02 be 0c b1 86 3d 4d 17 a2 3e
       0.08372784 -0.12754132 0.06576738 0.31658402
0003a0 40 56 0d 3e d6 cc ec bb fd 43 38 be 89 74 59 3b
       0.13802433 -0.007226567 -0.17994685 0.0033181033
0003b0 0d 89 a1 3c fe 66 da 3d 0b 25 d9 bc a5 1d 12 3e
       0.019718671 0.106641755 -0.026506921 0.14269121
0003c0 3d b0 75 bc d2 e8 b5 bd d6 e6 2c be f8 30 3d be
       -0.014995632 -0.088822976 -0.16884932 -0.18475711
0003d0 5e bc 3f be 20 e8 7c bd 86 87 23 be 31 e6 56 3d
       -0.187242 -0.06174481 -0.15969667 0.05246562
0003e0 ac 15 0b 3e 34 f6 b4 3d 53 93 77 3e 09 1f 1f 3e
       0.13582486 0.08836022 0.24177293 0.15539183
0003f0 29 5e 74 bd ee d4 74 be e4 92 66 be 4a ab 1b 3e
       -0.05966011 -0.23909351 -0.22516972 0.1520206

classifier.0.bias f4 [50]
000000 01 71 45 3e 54 c2 c6 3c a2 14 42 3e 46 58 5c be
       0.19281389 0.024262585 0.18953183 -0.21518049
000010 47 f7 aa be b8 f2 d1 bc 51 a1 56 3e 56 33 b6 bd
       -0.33391783 -0.025628433 0.20959975 -0.0889651
000020 0a 7b 12 be 00 fa 6e 3e a0 eb 7a 3c ed bc 4c 3e
       -0.14304748 0.23337555 0.015314966 0.19993944
000030 e2 71 95 3e 0d 4f 64 3e 8b a5 48 be 36 2b 81 3e
       0.29188448 0.2229578 -0.195944 0.2522828
000040 53 b7 aa 3e 04 be 97 3e f2 fa b5 3d 90 a6 11 be
       0.3334299 0.29637158 0.08885755 -0.14223695
000050 9d 21 65 3e 81 ef c7 3b 0c d8 ee 3e c5 30 c7 3d
       0.22376104 0.006101549 0.46649206 0.09726099
000060 fb 70 fa be 06 59 a1 3e b0 c6 5c bd 21 d6 9e 3e
       -0.48914322 0.31513232 -0.05390042 0.31022742
000070 9b 3c f6 3b ad 38 02 3e 20 2d b1 be d0 58 8f 3d
       0.007514549 0.12716933 -0.3460474 0.069993615
000080 86 94 93 3e e3 ef 29 bd d7 c2 3a 3e 47 97 a5 3c
       0.28824252 -0.04148854 0.18238388 0.020213736
000090 83 c8 00 bb cf 3c 49 3d 53 2a 19 3f 70 cd a7 bc
       -0.0019650764 0.049130257 0.59830207 -0.020483702
0000a0 e3 84 11 3e b0 4f 87 3e 1d 70 6e 3e c7 6c 3b 3e
       0.14210849 0.26427984 0.23284955 0.18303214
0000b0 74 09 58 bd b2 ab 45 3d 29 52 9d bc d0 b9 a7 3e
       -0.05274339 0.048259445 -0.019204216 0.3275895
0000c0 b6 56 90 be 99 be 3e 3e
       -0.28191155 0.18627395

classifier.3.weight f4 [10, 50]
000000 c1 87 69 be a6 93 ea 3d 9d 86 f6 3d 12 d9 c9 3d
       -0.22805692 0.11453943 0.12037394 0.09855856
000010 64 e2 9a be fa ad 80 be c4 72 a7 be ce fe d5 3d
       -0.30250847 -0.25132734 -0.32704747 0.10448991
000020 46 bf 22 3d 11 bc 85 be 33 b6 b4 be 1a 0c 95 3d
       0.039733194 -0.26120046 -0.35295257 0.07277699
000030 67 74 41 be 83 4d 22 3e 6a 1b 50 be ad ce 26 3d
       -0.1889206 0.15849881 -0.20322958 0.040724445
000040 a4 09 b8 3d 6e 96 e5 bd 6f 59 fa bd 81 94 89 be
       0.08986214 -0.11210333 -0.12224089 -0.26871112
000050 10 f1 25 3e e3 a7 98 be 0b 2a be be 5f 01 72 be
       0.1620524 -0.29815587 -0.3714145 -0.23633336
000060 25 1a 68 be f3 91 17 bd b5 47 1a bd 2a 38 93 be
       -0.22666223 -0.037004422 -0.03766604 -0.28753787
000070 4e 22 c6 3d 9e 8e 0c 3e 06 0a 70 be 07 79 9a be
       0.09674512 0.13726279 -0.23441324 -0.30170462
000080 4c 9f 3a be f4 be 7f be 6f 17 7d be 07 76 b6 be
       -0.1822483 -0.24975187 -0.2471597 -0.35636923
000090 1b eb a1 be 3b b7 0a 3e 5e a4 64 be 30 59 4c be
       -0.31624684 0.1354646 -0.22328326 -0.19955897
0000a0 85 72 2a 3e 51 f7 bb bd f2 2c dd 3d 2e f2 16 3e
       0.16645248 -0.09178031 0.10799588 0.14740822
0000b0 b0 e9 6b be 55 c7 07 be 36 64 56 be db e1 f1 bd
       -0.23038363 -0.13259633 -0.20936665 -0.11810657
0000c0 09 c3 52 be 68 75 20 3e 8a aa d1 bc c3 cb 32 be
       -0.20582213 0.15669787 -0.025594015 -0.17460541
0000d0 8d 90 4c 3d 6a d7 05 bf 6b 93 76 be b8 4d 07 be
       0.049942542 -0.5228182 -0.24079673 -0.13213241
0000e0 f4 9e ce 3d 07 e5 83 be 70 da 11 be 87 a0 bc 3c
       0.10088912 -0.25760671 -0.14243484 0.023025764
0000f0 52 0f ac 3d 64 04 64 3d f9 08 1f 3e 3b 32 86 be
       0.084013596 0.05566825 0.15530767 -0.26210198
000100 f4 31 02 bc d3 e3 f2 bd a8 71 0f 3e 96 60 03 3e
       -0.00794648 -0.1185986 0.140082 0.12829813
000110 86 fe b9 be b0 db d4 3d 9d df 0a 3e 38 65 1d 3e
       -0.36326998 0.103934646 0.13561864 0.15370643
000120 87 1b c2 3d bd b3 4e 3e df d9 c4 be e4 88 90 3d
       0.09477907 0.20185752 -0.38447472 0.0705736
000130 c2 fa 36 bd fd 07 2b 3e 3a 82 d9 3c bf e7 8a 3d
       -0.044672735 0.16702266 0.026551355 0.06782483
000140 8a b3 91 be 9c c9 a5 3d 9d ea df 3d c8 75 41 be
       -0.2845729 0.080950946 0.10933421 -0.18892586
000150 60 1e 59 3d db 1d 42 be 82 4b 07 3d 52 18 93 be
       0.053007483 -0.18956701 0.033030994 -0.28729492
000160 41 d0 e3 3d 62 43 af 3c c9 0d 1c be 47 dc 0b 3e
       0.11123706 0.021394435 -0.15239634 0.13658248
000170 45 f9 58 3d 68 5f eb 3d 56 95 be bc c8 b8 8b be
       0.052972097 0.11492807 -0.023264568 -0.27289414
000180 46 57 33 be a8 12 0f 3e 78 60 88 be 5b f4 9a be
       -0.17513761 0.1397196 -0.266361 -0.30264553
000190 55 ff bc 3d 98 77 99 3d 22 56 74 be 72 98 99 3d
       0.09228388 0.07493514 -0.23860982 0.0749978
0001a0 68 6b 37 3d 9c b3 f6 3d 78 d5 58 be db 74 89 3d
       0.044780165 0.120459765 -0.21175182 0.067117415
0001b0 a2 b5 60 bd a4 31 7a 3d 7c 62 95 be 3b 07 60 be
       -0.05486072 0.061082497 -0.291767 -0.21877758
0001c0 3c 29 31 3e fc 37 6f be d7 1f 69 be f1 e8 88 3d
       0.17300886 -0.233612 -0.22766052 0.06685055
0001d0 bd 24 41 bd 44 ba 82 be a3 53 63 be 99 46 07 3e
       -0.047154177 -0.25532734 -0.22199874 0.13210525
0001e0 bf e6 6b be 28 0d 3f be 32 56 9c 3d 26 1c 81 bd
       -0.23037241 -0.18657362 0.07633628 -0.06304197
0001f0 6e b4 50 be 9d e1 b1 3d f4 17 48 be 8b 9c 04 be
       -0.20381328 0.086856104 -0.19540387 -0.12950341
000200 18 99 c8 3d 41 36 ca bc f4 ea 9d 3c f0 85 ca 3d
       0.09794825 -0.024684073 0.019277073 0.09888828
000210 46 d5 3b bc 4d ce d6 3d 1a 3b 2d 3d ea 8a 51 be
       -0.011464423 0.104885675 0.04229269 -0.20463148
000220 d1 ad 7b 3d 80 89 a9 3b df 3f 08 be 8f ef 49 be
       0.06144506 0.005173862 -0.13305615 -0.1972029
000230 8e 0b 0c bd 74 76 ae bd 53 08 a0 3d 6f 35 24 3e
       -0.034190707 -0.08518687 0.07814088 0.16036008
000240 f3 0b 21 be 19 ab d6 3d 79 8d 66 bd 32 a8 ff 3d
       -0.15727215 0.10481853 -0.056287263 0.124832526
000250 fd 90 7a 3d 35 bd d8 bd 2d 89 89 bd 18 25 5e be
       0.061173428 -0.105829634 -0.06715617 -0.21693838
000260 de 6d 28 be ae fd c3 bd b1 f8 9c 3d 09 b0 22 3e
       -0.16448161 -0.0956987 0.076646216 0.15887465
000270 3e 55 0b bd 3e dc f1 bd 59 45 f9 3d fd 53 38 be
       -0.03401684 -0.11809586 0.1217143 -0.18000789
000280 9a 43 e4 3d 66 63 a1 3d 6e 63 4d bd 9c 02 29 be
       0.111457065 0.07880287 -0.05014365 -0.16504902
000290 c9 8f 09 3e a0 d4 96 3d 92 a7 aa bd c5 9a 81 be
       0.13433756 0.07364774 -0.08332743 -0.25313392
0002a0 da c1 68 be 27 fa 12 3e d8 b7 59 be 27 63 67 be
       -0.22730199 0.14353238 -0.21261537 -0.22596417
0002b0 bb 51 1d be 66 bf 66 be c5 fe 8c 3d eb 2b a6 be
       -0.15363209 -0.2253395 0.06884531 -0.32455382
0002c0 a2 5b 09 be 81 de 5a bd de a9 a4 3d 01 31 ed 3d
       -0.13413861 -0.053434853 0.08040212 0.115816124
0002d0 7d db b6 bd be 68 e0 3d bd 0a cf be 29 d0 16 3d
       -0.08928583 0.10957478 -0.4043788 0.03681961
0002e0 37 43 b9 3d 69 e4 e9 3d 3b f9 c4 3d 05 82 10 be
       0.09046023 0.11420519 0.096178494 -0.14112099
0002f0 5f 9d 0f be 92 d2 fb bd 60 de 0c be ea 32 bf be
       -0.14024876 -0.122960225 -0.13756704 -0.37343532
000300 99 18 62 be 03 c4 1f be 39 a6 e8 bd 1d 98 16 bd
       -0.22079696 -0.15602116 -0.113598295 -0.03676616
000310 76 db 62 be 61 27 1a be 4f 3f e4 3d 89 42 28 bd
       -0.2215403 -0.15054084 0.11144888 -0.041079078
000320 33 5f a3 be a5 66 b0 3d c9 44 0f be 9f d0 05 be
       -0.3190857 0.08613328 -0.13991083 -0.13067864
000330 ad db 06 3d bf 8a 04 3e 84 0c 72 3c 17 6e b1 3d
       0.032924343 0.12943552 0.014773492 0.08663576
000340 b3 15 24 be 0b d4 ec bd 7e 83 bc 3d ae 0c ac be
       -0.16023903 -0.115638815 0.09204768 -0.33603424
000350 a4 b0 2f be d4 d0 d0 3d 28 ea 43 be 46 c7 2b be
       -0.17157227 0.10196081 -0.19132292 -0.16775236
000360 34 19 28 3e 5a 9d fb 3d a8 63 e5 3d 0a 31 0c be
       0.16415864 0.12285872 0.112006485 -0.13690582
000370 66 c2 5d be 9e 28 08 3e 19 9c 38 3c f4 94 44 3e
       -0.21656188 0.13296744 0.011267685 0.19197446
000380 d9 2c 6f be f2 64 08 3e d2 a6 a6 bd 94 d4 43 3e
       -0.23356952 0.13319758 -0.08137287 0.19124061
000390 db f4 69 be 24 11 00 3e d4 7e 1c 3e 7c 51 3b be
       -0.22847311 0.12506539 0.15282756 -0.18292803
0003a0 ae 57 ec 3d 78 65 0c be 81 39 71 be 8d 9c c1 3d
       0.11540161 -0.13710582 -0.23557092 0.09453688
0003b0 3d 22 6a be b2 63 f7 3d 59 09 84 3d a7 7a 03 be
       -0.22864623 0.12079562 0.064470954 -0.12839757
0003c0 77 3a 13 be bc f1 13 3e 8c ea 00 be 26 55 0a bd
       -0.14377771 0.14447683 -0.12589473 -0.03377261
0003d0 15 6d 1c 3e 41 81 d3 3d 22 f0 08 3e a4 f1 ea 3d
       0.15275986 0.103273876 0.13372853 0.114718705
0003e0 db ab be 3d ea e7 18 be 8d c4 c5 3d 9e 33 06 be
       0.093101226 -0.14932218 0.0965663 -0.13105628
0003f0 b1 46 5d bd 4a ed 75 bc 9d be 2f be 08 ae 7a bd
       -0.054022495 -0.015010187 -0.17162557 -0.061201125

classifier.3.bias f4 [10]
000000 dd 22 76 3f 25 b1 be bb a3 b7 d7 3d 6e 4f 1b 3e
       0.9614695 -0.005819457 0.10533073 0.15167019
000010 c5 99 3e bf 06 75 50 be d0 64 e7 be ec 23 5e be
       -0.74453384 -0.20357141 -0.451941 -0.2169339
000020 6f cf d8 bd f6 9b 89 3e
       -0.1058644 0.268768
