Domain_Adaptation/trained_models/source.pt (torch, 92660 bytes, 8 tensors)

feature_extractor.0.weight f4 [10, 3, 5, 5]
0	0xbd1a423c	-0.037660822
1	0xbe2bd5dc	-0.167808
2	0x3d1cc170	0.038270414
3	0x3daae879	0.08345122
4	0x3dab2dff	0.083583824
5	0xbe7628e9	-0.24039043
6	0xbd5aecdc	-0.053448543
7	0xbbf9a4dd	-0.00761853
8	0x3e1d0ec5	0.15337665
9	0x3de55c2e	0.111992225
10	0xbee64ccd	-0.4498047
11	0x3d0306c5	0.031988878
12	0xbd5442f2	-0.051821657
13	0x3e16fb23	0.14744239
14	0x3e1ad06a	0.15118566
15	0xbe52e360	-0.20594549
16	0xbe67fab2	-0.22654226
17	0xbe12e6e7	-0.14345895
18	0xbb88155a	-0.004152936
19	0x3cbfc2d9	0.02340834
20	0x3dd9546a	0.10611804
21	0xbe02777c	-0.12740892
22	0xbe69eec4	-0.22844988
23	0xbd394866	-0.04523506
24	0x3d9386d8	0.07203454
25	0xbde8df43	-0.11370709
26	0xbdfe788c	-0.12425336
27	0xbcca4ccd	-0.024694825
28	0x3e115493	0.14192419
29	0x3d9a05c4	0.07520631
30	0xbe90c76c	-0.28277147
31	0xbe318da5	-0.1733919
32	0x3d1c4efa	0.038161255
33	0x3e1e9e79	0.1549014
34	0x3d7e66dd	0.062109817
35	0xbead1703	-0.3380662
36	0xbe084d2d	-0.1331069
37	0xbcde97be	-0.027171966
38	0x3df5c21f	0.11999916
39	0x3d35914a	0.04432801
40	0xbebc1580	-0.36735153
41	0xbe8813c7	-0.2657759
42	0xbe010ad6	-0.1260179
43	0xbc8d088b	-0.017215988
44	0x3dd34271	0.10315407
45	0x3e8a069e	0.26958174
46	0xbdfb1e90	-0.12261689
47	0xbd6174b4	-0.055042937
48	0xbd89c32c	-0.06726679
49	0x3dcf4ee2	0.101224676
50	0x3ca2423b	0.019806972
51	0x3c6b8617	0.014375231
52	0x3e280014	0.1640628
53	0x3dd102b6	0.10205595
54	0xbb5f8ee9	-0.003411228
55	0xbe6e2163	-0.23254924
56	0xbdce6610	-0.100780606
57	0x3dd646ee	0.104627475
58	0x3be89359	0.0070976433
59	0x3e12eaa4	0.14347321
60	0xbed6cbfb	-0.419525
61	0xbb85cc08	-0.0040831603
62	0x3dbc0e02	0.09182359
63	0x3df34908	0.11879164
64	0x3e2e0f03	0.16997914
65	0xbeabccbb	-0.33554634
66	0xbe686c31	-0.22697522
67	0xbe83fd22	-0.25779063
68	0xbdb7ba03	-0.08971026
69	0x3e1c8665	0.15285642
70	0x3e122462	0.14271691
71	0xbcfb2cbd	-0.030660981
72	0xbdfb3ab7	-0.12267058
73	0xbe623543	-0.2209063
74	0x3c87b703	0.016566759
75	0xbd24ca1d	-0.040231813
76	0x3de929c6	0.11384921
77	0xbdd368ae	-0.103227004
78	0xbdbb00d3	-0.091310166
79	0xbd86af3c	-0.06576392
80	0xbd180ad8	-0.037119716
81	0x3e0d384d	0.13791008
82	0x3ce32795	0.027728835
83	0xbe424cb8	-0.18974578
84	0xbd5893c0	-0.05287528
85	0x3d219b1b	0.03945456
86	0x3cf91629	0.030406075
87	0x3dbc1802	0.091842666
88	0x3e7bd38d	0.24592419
89	0x3e776f88	0.2416364
90	0xbd41a331	-0.047274772
91	0xbd5142fe	-0.05108928
92	0x3e0ec9ec	0.13944215
93	0x3e515ba3	0.20445113
94	0x3df10da9	0.117701836
95	0xbe4c9547	-0.1997882
96	0xbe20e67c	-0.15712923
97	0xbe2210b4	-0.15826684
98	0xbe4141a2	-0.18872693
99	0xbe2b41b4	-0.16724283
100	0xbd16ecaa	-0.036846794
101	0xbddb4630	-0.107067466
102	0xbc943d2a	-0.018095572
103	0xbdcc6ecd	-0.09982071
104	0xbd9dfbb6	-0.07714026
105	0xbc9fbca7	-0.019499136
106	0x3d593e84	0.053038135
107	0xbdb50aff	-0.08839988
108	0xbe1fd436	-0.15608296
109	0xbd4b0e77	-0.04957434
110	0xbccdb554	-0.025110878
111	0x3e5094e9	0.20369305
112	0x3e18f45a	0.14936963
113	0x3e1897e4	0.14901692
114	0x3e1b9450	0.15193295
115	0x3cb00857	0.021488352
116	0x3d695299	0.056963537
117	0x3e03338a	0.1281263
118	0x3e044fbd	0.12921043
119	0x3dc49515	0.09598748
120	0xbe0e068a	-0.13869682
121	0xbe5ca4eb	-0.21547286
122	0xbea83d73	-0.32859382
123	0xbe99192a	-0.2990201
124	0xbdd572a6	-0.10422258
125	0x3d4cf171	0.050034944
126	0x3d0677ef	0.03282922
127	0xbd4149a7	-0.04718938
128	0xbde22d4f	-0.11043798
129	0xbcd07d71	-0.02545044
130	0x3db53ace	0.08849107
131	0x3da32c69	0.07967455
132	0xbc297cc7	-0.010344691
133	0xbe2d6b0f	-0.16935371
134	0xbd85ade3	-0.06527307
135	0x3cc44843	0.023960238
136	0x3c144f44	0.0090521015
137	0x3e92270d	0.28545418
138	0x3e7d108c	0.24713343
139	0x3d36a0aa	0.044586815
140	0x3c920cb2	0.01782832
141	0x3de7c478	0.1131677
142	0x3e16012b	0.14648883
143	0x3e259932	0.1617172
144	0x3da2f819	0.07957477
145	0xbded2ef5	-0.11581222
146	0xbe9111fa	-0.28334028
147	0xbe8f8910	-0.28034258
148	0xbdfa458a	-0.12220295
149	0xbe25ea48	-0.16202652
150	0xbcde0673	-0.027102685
151	0xbe535c07	-0.20640574
152	0xbadc7b34	-0.0016821385
153	0x3e1918c8	0.1495086
154	0x3d9855f1	0.07438267
155	0xbcacdc42	-0.02110112
156	0xbafb2a83	-0.001916245
157	0x3e7779f6	0.24167618
158	0x3e53d9ad	0.20688505
159	0xbe11d37a	-0.14240828
160	0x3d4ba4e8	0.049717814
161	0x3e0d8f44	0.13824183
162	0x3e919a12	0.2843786
163	0xbe036f74	-0.12835485
164	0xbe7e9fab	-0.24865596
165	0x3dc1ec24	0.094688684
166	0x3dbcc172	0.09216584
167	0xbe19192f	-0.14951013
168	0xbe202dd7	-0.15642487
169	0x3d1e3a4e	0.038629822
170	0x3cd8ce29	0.026465492
171	0x3d906922	0.070513025
172	0x3d2a063e	0.04150986
173	0x3cd72405	0.026262293
174	0x3cd27f80	0.025695562
175	0xbe2b630b	-0.16737
176	0xbe7f1dad	-0.24913664
177	0x3d0a6b05	0.033793468
178	0xbc045099	-0.008075857
179	0x3dd978db	0.106187545
180	0xbdb6dccb	-0.08928832
181	0x3cb2534b	0.021768233
182	0x3e051836	0.12997517
183	0x3dea50e0	0.11441207
184	0xbe1edae9	-0.15513195
185	0xbd8a2399	-0.06745071
186	0x3ca2a11a	0.01985221
187	0x3e1aa99c	0.15103763
188	0xbb508be0	-0.0031821653
189	0xbeba4d16	-0.36386937
190	0xbd207bfe	-0.03918075
191	0xbd9f2d05	-0.07772259
192	0x3d56c203	0.052431118
193	0xbda60b4e	-0.08107625
194	0xbd70bcb6	-0.05877372
195	0x3d99748d	0.074929334
196	0xbd78dc0d	-0.06075673
197	0x3d851d02	0.064996734
198	0x3d3e5d0a	0.046475448
199	0xbdde4977	-0.10853856
200	0xbe19df85	-0.15026672
201	0xbd6d4c26	-0.05793395
202	0xbb0e4e24	-0.0021714056
203	0x3e08d73b	0.13363354
204	0xbd44ddc9	-0.048063073
205	0xbe0207f4	-0.12698346
206	0xbccef82e	-0.025264826
207	0x3e0ed7e4	0.13949543
208	0x3d7548d8	0.059883922
209	0xbe1d9fc9	-0.15392984
210	0x3d8ae7be	0.067824826
211	0x3e2a4955	0.16629536
212	0x3e301f69	0.17199482
213	0xbe4a858e	-0.1977751
214	0xbe3fc30a	-0.18726745
215	0x3dbfd16e	0.093661174
216	0xbd8240f6	-0.063600466
217	0xbe1876fc	-0.14889139
218	0xbdd50db8	-0.10403007
219	0xbd37a46a	-0.04483453
220	0xbdc89ad8	-0.09795159
221	0x3d09eaa3	0.033671033
222	0x3d97241b	0.073799334
223	0x3e347f31	0.17626645
224	0xbcdb8950	-0.026798874
225	0x3d803683	0.06260397
226	0xbd101156	-0.035172783
227	0xbdd6ad62	-0.10482289
228	0x3c1655be	0.009175716
229	0x3b9283a7	0.0044712606
230	0x3df05336	0.11734621
231	0x3e297aec	0.16550797
232	0x3d01b990	0.031671107
233	0xbebfec7c	-0.3748511
234	0xbe8754cb	-0.2643188
235	0xbd567c87	-0.052364852
236	0x3dc5a091	0.09649766
237	0x3e659832	0.22421339
238	0xbdc16a5f	-0.09444117
239	0x3cfc6c97	0.030813498
240	0xbe986264	-0.29762566
241	0xbdaa4e37	-0.083156995
242	0x3e507a06	0.20359048
243	0x3d9b3a08	0.07579428
244	0x3e60b12f	0.2194259
245	0xbbf86a61	-0.0075810407
246	0x3d21b8b2	0.03948278
247	0xbc8a1ff1	-0.016860934
248	0x3e2ff86a	0.17184606
249	0xbe50d980	-0.2039547
250	0x3c3c976c	0.011510711
251	0x3dab9442	0.08377887
252	0x3bf1b11b	0.007375849
253	0xbd539b98	-0.051662058
254	0x3cc5ff2c	0.024169527
255	0xbc3f6dd2	-0.011683898

feature_extractor.0.bias f4 [10]
0	0xbc349142	-0.01102096
1	0xbddb0dfa	-0.10696025
2	0xbedb1e41	-0.4279652
3	0xbe86303b	-0.26208672
4	0xbaff99ba	-0.001950077
5	0xbe22e445	-0.1590739
6	0x3db7225d	0.08942101
7	0xbea80774	-0.32818186
8	0xbecdac6f	-0.4017062
9	0xbe3cf0c7	-0.18451224

feature_extractor.3.weight f4 [20, 10, 5, 5]
0	0xbda3b3bf	-0.07993268
1	0x3c997e28	0.018736914
2	0xbdaca000	-0.08428955
3	0xbea5c3e7	-0.32376024
4	0xbf036ed3	-0.5134098
5	0x3e23ed0b	0.16008393
6	0x3d9ef1f6	0.07760994
7	0x3d9a9a2a	0.07548936
8	0xbd4d2032	-0.050079532
9	0xbe4bad7f	-0.19890402
10	0x3d88203c	0.06646773
11	0xbd38b852	-0.045097657
12	0x3de96e93	0.113980435
13	0x3e35ed39	0.17766275
14	0x3d9bf4d3	0.07615056
15	0x3e087062	0.1332412
16	0x3d3862fe	0.04501628
17	0x3df19dc7	0.11797672
18	0x3e6eac93	0.2330802
19	0x3d4ffdf5	0.0507793
20	0x3d61ebac	0.055156395
21	0xbd20e72b	-0.03928296
22	0xbd724162	-0.059144385
23	0xbd5a6d2e	-0.053326778
24	0xbe92a758	-0.28643298
25	0x3cbcbae4	0.023038335
26	0x3c0344f7	0.008012048
27	0xbab04d0e	-0.0013450698
28	0x3dff321d	0.1246073
29	0x3de0d2b6	0.1097769
30	0x3d168833	0.036750983
31	0xbc97cdef	-0.018530814
32	0xbd919c0f	-0.07109844
33	0x3e2fac26	0.17155513
34	0x3de69d5a	0.11260481
35	0xbcb14987	-0.021641506
36	0x3e0c1cca	0.13682857
37	0x3bafeefb	0.005369065
38	0x3e62e240	0.2215662
39	0x3e5cd9f4	0.21567518
40	0x3e067169	0.131292
41	0x3daf887d	0.08570955
42	0x3d61e5cb	0.05515079
43	0x3e727155	0.23676045
44	0x3dfb875e	0.122816786
45	0x3d81f5ff	0.06345748
46	0x3c68bf67	0.01420579
47	0xbde66016	-0.11248796
48	0xbdbcf173	-0.0922574
49	0x3c0efdf6	0.008727541
50	0x3d836823	0.06416347
51	0xbdf89658	-0.12138051
52	0x3db0081e	0.08595298
53	0x3e6ee18b	0.23328225
54	0x3e53d3f7	0.20686327
55	0xbe4065e4	-0.18788868
56	0xbd4a8c6f	-0.049450334
57	0xbdf47a5b	-0.119374
58	0x3d1ea35f	0.03873002
59	0x3e3e1b6f	0.18565153
60	0xbe0de925	-0.13858469
61	0xbda84ed0	-0.08218157
62	0x3c365231	0.011127994
63	0xbd4fc46e	-0.05072444
64	0xbcf488a4	-0.029850312
65	0xbd75f268	-0.06004563
66	0xbdf08fa0	-0.11746144
67	0xbd4d84f3	-0.05017562
68	0xbda1d143	-0.07901242
69	0x3c414454	0.011796076
70	0xbd2dbf2f	-0.042418655
71	0xbe478f07	-0.19488154
72	0xbe02e50f	-0.12782691
73	0xbc82dc3f	-0.015974162
74	0x3e06d869	0.13168491
75	0xbe3f7981	-0.18698694
76	0xbc7283d6	-0.01480194
77	0xbc357f68	-0.011077739
78	0xbd3714bc	-0.04469751
79	0xbe124f7e	-0.14288136
80	0xbe419fb2	-0.18908575
81	0xbc2ff862	-0.010740371
82	0xbd8a7e1f	-0.06762337
83	0xbd4d10d3	-0.050064873
84	0x3e697e47	0.22802077
85	0x3d82af54	0.063810974
86	0xbd503f22	-0.05084146
87	0xbd39948d	-0.045307685
88	0x3e06f68f	0.13179992
89	0x3c717d34	0.014739323
90	0x3de32a93	0.11092105
91	0x3c781652	0.01514204
92	0x3e0db84b	0.13839833
93	0xbc1afd16	-0.009459754
94	0xbe194b29	-0.14970078
95	0x3e1e8f98	0.15484464
96	0x3e36e612	0.17861202
97	0x3c6ec8d0	0.014574245
98	0xbdd2fa50	-0.103016496
99	0xbe75cc46	-0.24003705
100	0x3d0fe26b	0.03512804
101	0x3cd0070b	0.025393983
102	0xbceefc18	-0.029172942
103	0x3cfa84a6	0.03058083
104	0x3db1b206	0.086765334
105	0xbc703e37	-0.014663271
106	0x3decb469	0.11557848
107	0xbcc40740	-0.023929238
108	0x3d628154	0.05529912
109	0xbdba75af	-0.091044776
110	0x3d5ff771	0.054679338
111	0x3d9886c4	0.074475795
112	0xbcda16bf	-0.026622174
113	0x3c157f96	0.009124657
114	0x3c8ce2e5	0.017198035
115	0x3e443b13	0.1916316
116	0x3de7bd95	0.11315457
117	0xbdfc1c27	-0.12310057
118	0xbe04a80d	-0.12954731
119	0xbd87c98f	-0.06630241
120	0x3e412dd1	0.18865134
121	0x3e3897e2	0.18026689
122	0x3d021200	0.031755447
123	0xbe4f0e8c	-0.20220393
124	0xbeb28b6d	-0.34871998
125	0x3c43d56d	0.01195274
126	0x3d741f65	0.059600253
127	0x3e09bcac	0.13450879
128	0x3da29fb2	0.07940616
129	0x3d0d0144	0.034425035
130	0x3d6513d5	0.055927116
131	0x3d7c2146	0.06155517
132	0xbd463ba0	-0.048396707
133	0x3c97ad2e	0.018515196
134	0xbe928b58	-0.28621936
135	0x3d267126	0.04063525
136	0xbb407dad	-0.0029371784
137	0xbdcc9c73	-0.09990778
138	0xbde91432	-0.11380805
139	0xbe52a48b	-0.2057058
140	0xbe063040	-0.13104343
141	0xbe62e4e0	-0.22157621
142	0xbdc8c8b5	-0.09803907
143	0xbd877624	-0.066143304
144	0xbe1176f2	-0.1420553
145	0xbe0a7144	-0.1351977
146	0x3d48be94	0.049009874
147	0x3e130936	0.14358982
148	0x3e31ec4c	0.17375296
149	0xbbdbfa16	-0.006713162
150	0xbe84833d	-0.25881377
151	0x3dc8e725	0.09809712
152	0xbce07363	-0.02739877
153	0xbc0f8acd	-0.00876112
154	0xbe34d147	-0.17657958
155	0xbeab2ec2	-0.3343411
156	0x3de85bb3	0.11345615
157	0x3b047884	0.0020213434
158	0x3debcb3d	0.11513374
159	0x3da332fd	0.079687096
160	0xbe86f12f	-0.26355883
161	0xb9769343	-0.00023515247
162	0x3c397616	0.011319658
163	0x3e034ac2	0.12821487
164	0xbde705c9	-0.112804
165	0xbc921107	-0.017830385
166	0xbd5a7354	-0.05333264
167	0x3def84af	0.11695229
168	0x3e14db09	0.1453668
169	0xbdee0421	-0.11621881
170	0x3c987752	0.018611584
171	0x3ce95382	0.028482202
172	0x3ab24ed0	0.001360381
173	0xbd9b7fd6	-0.07592742
174	0xbdd31047	-0.10305839
175	0xbe2858cb	-0.16440122
176	0xbdcb1521	-0.099161394
177	0x3db60fbd	0.088897206
178	0xbc88657b	-0.016649952
179	0xbd9a69b1	-0.0753969
180	0xbde318a5	-0.11088685
181	0xbd824748	-0.06361252
182	0xbdf48829	-0.11940033
183	0xbe0eaf5b	-0.1393408
184	0xbd6e8607	-0.058233287
185	0xbd3fae48	-0.046797067
186	0xbcca3157	-0.02468173
187	0x3cc572f6	0.02410267
188	0xbe0da6da	-0.1383318
189	0xbded8935	-0.11598436
190	0xbc95a859	-0.018268751
191	0xbc87fc07	-0.016599668
192	0x3d7f3e42	0.062315233
193	0xbe029a44	-0.1275416
194	0xbe065aaf	-0.1312053
195	0xbe3d778d	-0.18502636
196	0xbd45c482	-0.048283108
197	0xbe2b9743	-0.1675692
198	0xbe05bcdd	-0.13060327
199	0xbce28e68	-0.027655795
200	0x3cc09b7d	0.023511643
201	0x3d89e2d6	0.06732719
202	0x3d437b81	0.047725204
203	0x3e01f1c6	0.12689885
204	0x3d50785d	0.050896037
205	0x3e17859a	0.14797059
206	0x3c9f5e23	0.019454068
207	0x3ddd75f6	0.10813515
208	0x3dab4618	0.08362979
209	0xbd5a4f24	-0.05329813
210	0xbd53c2ad	-0.05169933
211	0xbc7cf55e	-0.0154393595
212	0xbdf35959	-0.11882276
213	0xbbed8879	-0.007248935
214	0x3d116236	0.035494052
215	0xbdb85dc1	-0.09002257
216	0xbd8bc493	-0.06824603
217	0xbe466467	-0.19374238
218	0xbc472b7d	-0.0121563645
219	0x3ce279ed	0.02764603
220	0xbe0fd52d	-0.14046164
221	0xbdc149cb	-0.09437903
222	0xbd325751	-0.043540303
223	0xbaba2ca3	-0.0014203977
224	0x3d0d6f31	0.03452987
225	0x3dbce79a	0.09223862
226	0x3cdba9ac	0.026814304
227	0xbe393d8b	-0.18089883
228	0xbd8ebfa8	-0.06970149
229	0xbd07499a	-0.033029176
230	0x3dccf68f	0.10007965
231	0xbd80e7bb	-0.06294199
232	0xbd961051	-0.07327331
233	0x3d5f0307	0.054446246
234	0x3e64182c	0.22274846
235	0x3d117088	0.03550771
236	0xbd314b0f	-0.043284472
237	0x3d6169ac	0.055032417
238	0x3e6bfcc2	0.23045638
239	0x3e9fa46d	0.31180134
240	0x3e3b38bc	0.18283361
241	0x3d4229ca	0.047403134
242	0xbc83a77c	-0.016071074
243	0x3e0245dc	0.12721962
244	0x3dfa9eed	0.12237344
245	0x3db6997c	0.089159936
246	0xbcfc14be	-0.03077161
247	0xbd7bdb19	-0.061488245
248	0xbde99aee	-0.114065036
249	0xbe0bc777	-0.13650309
250	0xbe06dc02	-0.13169864
251	0x3d3a07d6	0.04541763
252	0xbd3a6ab5	-0.04551192
253	0x3d699230	0.05702418
254	0xbe9ff7d7	-0.31243774
255	0xbd944898	-0.07240409

feature_extractor.3.bias f4 [20]
0	0xbe009df3	-0.12560253
1	0xbdf4040f	-0.119148366
2	0xbd86a71a	-0.06574841
3	0xbda7b3a2	-0.08188559
4	0x3d0abdc6	0.03387239
5	0x3cbb0165	0.022827813
6	0xbd6f77e9	-0.058463965
7	0xbd42b532	-0.047536083
8	0xbd980b8c	-0.074240774
9	0xbe03fb1c	-0.1288876
10	0xbe171a7f	-0.14756201
11	0xbd5bb746	-0.05364158
12	0xbdd697ce	-0.10478173
13	0xbda471f1	-0.08029545
14	0xbd545b74	-0.05184503
15	0xbe5ee948	-0.21768677
16	0xbe079363	-0.13239817
17	0xbb06f22b	-0.002059112
18	0xbd2d7569	-0.0423483
19	0xbe7e21f0	-0.24817634

classifier.0.weight f4 [50, 320]
0	0x3d5017db	0.050804
1	0x3df0a4b0	0.11750162
2	0x3c84f66b	0.016230782
3	0x3d67df6d	0.05660956
4	0x3d14a2c4	0.036288038
5	0x3d05028e	0.03247314
6	0xbd0dc8fb	-0.034615498
7	0xbe008572	-0.12550905
8	0xbc8d5343	-0.017251616
9	0xbe7b75ec	-0.24556702
10	0xbc28b007	-0.010295874
11	0xbbef39c8	-0.0073005892
12	0x3ad30d54	0.0016101995
13	0xbd773538	-0.060353488
14	0x3d01fff6	0.031738244
15	0x3d1c699c	0.038186654
16	0xbb9c2e60	-0.0047662705
17	0x3ddd01a2	0.10791327
18	0x3e08ab82	0.13346675
19	0x3d9d8547	0.07691436
20	0xbc1b9e02	-0.009498121
21	0xbc3b2622	-0.011422666
22	0xbe26d4d4	-0.16292125
23	0xbd80d316	-0.062902614
24	0x3d917edf	0.07104277
25	0xbd8f856d	-0.07007871
26	0x3cf1028d	0.029420162
27	0xbd1254fb	-0.035725575
28	0xbe269af3	-0.16270046
29	0xbd80ed6d	-0.062952854
30	0x3e3fdede	0.18737361
31	0x3d83e208	0.064395964
32	0x3d97f4e5	0.07419757
33	0x3c92d9ae	0.017926063
34	0x3c855420	0.016275465
35	0x3da76ee1	0.08175445
36	0x3df06ea2	0.117398515
37	0x3dd5f896	0.10447805
38	0xbdabe895	-0.08393971
39	0xbe846175	-0.25855604
40	0x3e443820	0.19162035
41	0x3d49a37a	0.04922817
42	0xbd9ce36b	-0.07660564
43	0xbd85f738	-0.06541294
44	0xbeb2fab4	-0.34956896
45	0xbe4650d3	-0.1936677
46	0x3d1cd38b	0.03828768
47	0x3df4af1c	0.11947462
48	0xbcbc19cb	-0.022961518
49	0xbcf33e64	-0.029692836
50	0x3db6a022	0.08917262
51	0xbd549def	-0.05190843
52	0x3e8f693b	0.28009972
53	0x3c5e31e4	0.0135617
54	0xbd1dfebc	-0.03857301
55	0x3d15b276	0.036547147
56	0xbe3e55d4	-0.18587428
57	0xbda7a877	-0.08186429
58	0x3d42157a	0.047383763
59	0x3d8e1e17	0.06939333
60	0x3d85e2a2	0.065373674
61	0x3c0ad015	0.008472462
62	0xbd216b79	-0.039409135
63	0x3e11baa9	0.14231361
64	0xbe59db26	-0.21275005
65	0xbcd68bd1	-0.026189717
66	0x3e0e9ee4	0.139278
67	0x3e1c60aa	0.1527125
68	0xbde9072b	-0.1137832
69	0xbc8f41b0	-0.017487377
70	0xbc8ed80c	-0.017437004
71	0xbc4b2d2f	-0.012400909
72	0x3ec95fc4	0.39330876
73	0x3d2f4a3d	0.04279541
74	0x3cd526ce	0.02601948
75	0xbd163c3d	-0.03667854
76	0xbdb060cf	-0.08612215
77	0xbe0be6b8	-0.13662231
78	0xbe0d3cac	-0.13792676
79	0x3e1b4ca2	0.15165952
80	0x3d6436ca	0.055716313
81	0xbd0c432c	-0.034243748
82	0x3dcde68a	0.100537375
83	0xbd1c8c9c	-0.038220033
84	0x3e36eeb3	0.17864494
85	0xbb959d03	-0.0045658364
86	0x3c249570	0.010045394
87	0xbe3807ea	-0.17971769
88	0x3dc40528	0.09571296
89	0xbd83e5aa	-0.06440289
90	0x3bd390e9	0.0064564836
91	0xbbc91eb3	-0.006137693
92	0xbe1af19f	-0.15131234
93	0xbdb21701	-0.08695794
94	0xbcc8ffbc	-0.024536006
95	0xbd46d4bc	-0.048542723
96	0x3e0860bd	0.13318153
97	0x3d148219	0.036256883
98	0x3b4502da	0.0030061514
99	0xbe02a5dc	-0.12758583
100	0x3e6e364c	0.232629
101	0xbd693cc7	-0.056942727
102	0x3d8b57f2	0.068038836
103	0x3ba0593a	0.004893449
104	0xbdc66051	-0.0968634
105	0xbe5677c6	-0.20944127
106	0x3c97c39b	0.01852589
107	0xbd62a764	-0.055335417
108	0xbd89af39	-0.06722874
109	0xbe26de81	-0.16295816
110	0xbe7eeb4c	-0.24894446
111	0x3d9ae9a4	0.07564095
112	0x3da50d09	0.08059127
113	0xbc9b81f0	-0.018982857
114	0x3d828426	0.063728616
115	0x3cb39143	0.021919852
116	0x3e473b6b	0.1945626
117	0xbde1405f	-0.10998606
118	0x3e014317	0.12623249
119	0xbd921f81	-0.07134915
120	0xbd393890	-0.045219958
121	0xbe297a9e	-0.16550681
122	0xbab7c492	-0.0014020375
123	0x3d71fbe4	0.059078112
124	0xbdc33ec9	-0.0953346
125	0xbe303972	-0.17209414
126	0xbc8f8647	-0.017520083
127	0x3dabe5e3	0.08393457
128	0xbd52c03d	-0.051452864
129	0xbb8e1ba3	-0.0043367906
130	0xbcb82727	-0.022479607
131	0xbd215cb9	-0.039395068
132	0x3df3f29b	0.11911508
133	0xbdd69535	-0.10477678
134	0x3dbf6f6d	0.09347425
135	0xbbeda7d9	-0.007252675
136	0xbcb22953	-0.02174822
137	0xbe177629	-0.14791168
138	0x3bd948cc	0.0066309925
139	0xbbc7b0f9	-0.006094095
140	0xbd9f2771	-0.07771195
141	0xbd87fbca	-0.06639822
142	0xbd8dc46b	-0.069222294
143	0x3c96a90b	0.018391153
144	0xbe43bcc4	-0.19114977
145	0x3dd70cd9	0.10500497
146	0xbd9860c5	-0.07440332
147	0x3dc63e3d	0.0967984
148	0x3d036ffc	0.03208922
149	0xbd993c3c	-0.07482192
150	0x3e113574	0.14180547
151	0xbd9a0b80	-0.07521725
152	0x3cdac39c	0.026704602
153	0x3e5f03b9	0.21778764
154	0xbdf5635b	-0.11981841
155	0xbd13148b	-0.035908263
156	0xbdbc48ce	-0.09193574
157	0xbe072c1a	-0.13200417
158	0xbd1fbd1e	-0.038998716
159	0x3c8dc19f	0.01730424
160	0x3dfa68a7	0.12226992
161	0x3d0504b6	0.032475196
162	0xbd8d51f3	-0.06900396
163	0xbda421f3	-0.08014288
164	0xbcb7e1cc	-0.022446536
165	0xbca6f193	-0.020378863
166	0xbdc6a84b	-0.09700068
167	0x3c2d49b1	0.010576651
168	0x3eff5d6c	0.49875963
169	0x3ba06184	0.0048944373
170	0xbd309a42	-0.04311586
171	0x3e511585	0.20418365
172	0xbe2da6ab	-0.1695811
173	0xbe1b73da	-0.15180913
174	0xbe3abfa6	-0.1823717
175	0xbd51eb9a	-0.051250078
176	0x3cca9c30	0.02473268
177	0x3e1e6266	0.15467224
178	0x3d074894	0.0330282
179	0x3c8bacfa	0.017050255
180	0x3c7f5402	0.015583994
181	0x3c7cacdf	0.015422075
182	0xbe567725	-0.20943888
183	0xbd430b07	-0.04761794
184	0xbe821ac8	-0.25411057
185	0x3d03492b	0.0320522
186	0x3d6b38fa	0.057427384
187	0x3dcea339	0.10089726
188	0xb9ca1b99	-0.00038549004
189	0x3dd3920f	0.10330593
190	0x3a97fcc3	0.0011595715
191	0x3e16d558	0.14729822
192	0x3e2ca372	0.16859224
193	0xbd6aeaad	-0.05735271
194	0x3e1809d8	0.14847505
195	0xbbe06e79	-0.006849107
196	0x3ce739f5	0.028225878
197	0xbd53945a	-0.05165515
198	0xbd1acec4	-0.037794843
199	0xbbaa80ff	-0.005203366
200	0xbe564725	-0.20925577
201	0xbdfb7d04	-0.12279704
202	0x3bf77959	0.0075523076
203	0x3da75315	0.081701435
204	0x3db1e0fc	0.086854905
205	0x3d5d9c26	0.054103993
206	0x3d3f4cbd	0.046704043
207	0x3e835921	0.25653937
208	0xbd9a4727	-0.075331025
209	0x3dd7186c	0.10502705
210	0x3e3273e4	0.17427021
211	0x3ca60751	0.02026716
212	0x3d126457	0.035740223
213	0xbe1e9fd1	-0.15490653
214	0x3e083b55	0.13303883
215	0xbe17cb52	-0.14823654
216	0xbd62e975	-0.055398423
217	0xbe83997a	-0.2570303
218	0xbd849a66	-0.06474762
219	0x3e1a02d9	0.15040149
220	0xbda0ca60	-0.078511
221	0xbd4717fc	-0.048606858
222	0xbce08244	-0.027405865
223	0x3e89b4aa	0.26895648
224	0xbda0405d	-0.07824776
225	0xbd0529a2	-0.032510407
226	0xbc56c492	-0.013108389
227	0xbd8b1bde	-0.067924246
228	0xbc1b74bc	-0.009488281
229	0x3e48364b	0.19551961
230	0xbd3ea92a	-0.046548046
231	0x3d8a98bb	0.06767412
232	0x3d1e9579	0.038716767
233	0xbe57e80a	-0.2108461
234	0xbc39bddb	-0.011336769
235	0x3dd148a6	0.10218935
236	0x3d4b57be	0.049644224
237	0xbd043bb2	-0.032283492
238	0xbdbfc0be	-0.093629345
239	0x3dd0350f	0.1016637
240	0x3db406c1	0.08790351
241	0x3cae6635	0.02128897
242	0x3d5500dd	0.052002776
243	0xbcc37134	-0.02385769
244	0x3d286a2c	0.04111688
245	0x3dccb4a4	0.09995392
246	0x3d4b5877	0.049644914
247	0xbe0b7b87	-0.1362134
248	0xbe888ee3	-0.26671514
249	0xbd46a247	-0.048494603
250	0xbdc33d62	-0.09533192
251	0xbd0772da	-0.033068515
252	0xbcc2898e	-0.023747232
253	0x3e01b3f2	0.126663
254	0xbc94fc8d	-0.018186832
255	0xbc86487e	-0.016391989

classifier.0.bias f4 [50]
0	0x3ea1d7cf	0.3160996
1	0x3e8188f4	0.252998
2	0xbe4e6fb0	-0.20159793
3	0xbda76775	-0.0817403
4	0x3ea9a4c5	0.33133522
5	0x3e14335a	0.14472714
6	0xbd953c92	-0.072869435
7	0x3d82a7d9	0.06379671
8	0xbbfa0614	-0.007630119
9	0x3d937723	0.07200458
10	0xbd972f44	-0.07382062
11	0xbe4a8f8d	-0.19781323
12	0xbe52a95d	-0.2057242
13	0x3e9cdff2	0.30639607
14	0xbdcaa777	-0.09895223
15	0x3e2b4080	0.16723824
16	0xbe84eea4	-0.25963318
17	0x3dd0e349	0.10199601
18	0x3ddbef22	0.1073897
19	0x3d721964	0.059106246
20	0x3ef7ac98	0.48373866
21	0xbd0ab177	-0.03386065
22	0xbe8182cf	-0.25295112
23	0xbe2cbc77	-0.16868769
24	0xbd5e6c16	-0.054302298
25	0xbe191396	-0.14948878
26	0x3dc4fe58	0.09618825
27	0xbe203837	-0.15646444
28	0x3e656858	0.22403085
29	0xbc60fb07	-0.013731725
30	0x3e2b469a	0.16726151
31	0xbea13587	-0.3148615
32	0x3d19acd1	0.037518326
33	0x3d985c24	0.074394494
34	0xbe527860	-0.20553732
35	0xbd50a1a6	-0.05093541
36	0xbe9b0cab	-0.30283102
37	0x3e02ef2e	0.12786552
38	0x3c545373	0.012959349
39	0x3edd7100	0.43250275
40	0x3db55bd5	0.08855406
41	0x3df8e0aa	0.12152226
42	0x3e3e99e5	0.18613394
43	0xbe15c968	-0.14627612
44	0x3e1587f4	0.14602643
45	0x3d43fafe	0.047846787
46	0x3e250fe5	0.16119345
47	0x3ec234fa	0.37931043
48	0x3e73f547	0.23824035
49	0x3e4f8fcc	0.20269698

classifier.3.weight f4 [10, 50]
0	0xbe537962	-0.20651773
1	0xbeb97906	-0.36225146
2	0xbdb80481	-0.08985234
3	0x3d775e82	0.060392864
4	0xbe0bcd0d	-0.1365244
5	0x3e0b5ce2	0.1360965
6	0xbebc6e45	-0.3680288
7	0xbd982a87	-0.074299864
8	0xbe5fdeea	-0.21862379
9	0x3de441c6	0.11145358
10	0xbed417f3	-0.41424522
11	0xbe230776	-0.15920815
12	0xbe1308e6	-0.14358863
13	0x3df6e684	0.12055686
14	0x3d0ca798	0.034339517
15	0xbe63eaeb	-0.22257583
16	0x3e02425d	0.12720628
17	0xbe7aa502	-0.24477008
18	0xbd9a21b8	-0.075259626
19	0x3dde8992	0.10866083
20	0xbe4d1673	-0.20028095
21	0xbe562aa5	-0.20914705
22	0x3d753188	0.05986169
23	0x3e2fb6fb	0.17159645
24	0xbe478c3c	-0.19487089
25	0xbda93589	-0.08262164
26	0xbeb518bb	-0.3537043
27	0xbe9a8b64	-0.30184472
28	0x3de4b700	0.11167717
29	0xbe7377aa	-0.23776117
30	0xba849971	-0.001011653
31	0x3e0edebc	0.13952154
32	0xbe955c98	-0.29172206
33	0x3dcd2ef0	0.10018718
34	0xbe6ffd0d	-0.23436375
35	0xbe88c390	-0.26711702
36	0x3d93ec33	0.07222786
37	0x3def718b	0.116915785
38	0x3de17c97	0.11010092
39	0xbdb795d3	-0.089641236
40	0x3da6032d	0.081060745
41	0xbe2b23fb	-0.16712944
42	0x3d4599b1	0.048242275
43	0xbd9b2646	-0.075756595
44	0xbebb7127	-0.36609766
45	0xbeb449c5	-0.35212532
46	0x3df1df83	0.118102096
47	0x3ddc8b2d	0.10768733
48	0x3e04e43e	0.12977692
49	0xbe6bff40	-0.23046589
50	0x3d9e2b1f	0.077230684
51	0x3e145e78	0.14489162
52	0x3e1997d2	0.14999321
53	0xbea749a6	-0.32673377
54	0x3def0fef	0.11672961
55	0x3e0bc5d5	0.13649686
56	0xbe526fba	-0.20550433
57	0xbe6813e3	-0.22663836
58	0xbd6d1e07	-0.057889964
59	0x3deb64f7	0.11493867
60	0x3daa1fa5	0.08306817
61	0x3d2e759b	0.042592626
62	0xbe68f732	-0.22750548
63	0xbebfd14e	-0.37464374
64	0xbe28f28f	-0.16498779
65	0xbccb49ac	-0.024815403
66	0xbe1e2aa3	-0.15445952
67	0x3da83996	0.08214109
68	0x3c3c9e22	0.011512311
69	0xbddb25bd	-0.107005574
70	0x3da33111	0.07968343
71	0xbdf8be8f	-0.12145721
72	0xbec89ec4	-0.3918363
73	0xbd9c33d0	-0.0762707
74	0xbed08020	-0.40722752
75	0xbe7fff2a	-0.24999681
76	0xbe61a93d	-0.22037216
77	0xbe93b23e	-0.28846925
78	0x3e186edc	0.1488604
79	0x3d900172	0.07031526
80	0x3e105fc7	0.14099036
81	0xbdbf7cde	-0.093499884
82	0x3d9c8e94	0.07644382
83	0xbe6333fc	-0.22187799
84	0x3d23e51d	0.04001342
85	0xbe6b08e9	-0.22952618
86	0xbe11405f	-0.14184712
87	0xbef59009	-0.47961453
88	0xbdf1363a	-0.11777921
89	0x3e23e042	0.16003516
90	0xbe7c23bf	-0.24623011
91	0x3e1dc05b	0.15405409
92	0xbe8a449b	-0.27005467
93	0xbe4c4c23	-0.19950919
94	0x3dd3534f	0.10318624
95	0x3dd68e2b	0.10476335
96	0xbe8ec7c5	-0.27886787
97	0x3e14b7e6	0.14523277
98	0x3e00591c	0.12533993
99	0x3e162b68	0.14664996
100	0x3ddd15b3	0.107951544
101	0xbe48830e	-0.19581243
102	0xbd5b92e7	-0.053606894
103	0xbc4ba0db	-0.012428488
104	0xbdfea0d9	-0.12433023
105	0xbdf5157f	-0.11966991
106	0xbdfe60cb	-0.124208055
107	0x3e243b05	0.16038139
108	0x3dd3bc22	0.10338618
109	0xbe3ea897	-0.18619
110	0xbe8ea118	-0.2785728
111	0xbe54b22a	-0.20771089
112	0xbdda4040	-0.10656786
113	0xbeb94382	-0.36184317
114	0x3d800623	0.062511705
115	0x3d8d76ac	0.069074005
116	0xbde79f16	-0.1130964
117	0xbe1761e3	-0.14783435
118	0x3e09658b	0.13417642
119	0xbe262d01	-0.16228105
120	0x3d948451	0.072518
121	0xbdbdb161	-0.09262348
122	0xbd08f7f2	-0.033439584
123	0x3e30a58e	0.17250654
124	0x3dc78fe0	0.09744239
125	0xbe17cb6a	-0.1482369
126	0xbde00e74	-0.10940257
127	0xbe0a359a	-0.1349701
128	0xbda1246d	-0.07868276
129	0x3dbfd1d8	0.093661964
130	0xbe6559f5	-0.22397597
131	0xbd483318	-0.04887685
132	0x3dbc9bbd	0.09209392
133	0x3d8767a6	0.06611566
134	0xbe5339e2	-0.2062755
135	0xbd12ccbd	-0.035839785
136	0x3daa4274	0.08313456
137	0xbe5b3165	-0.21405561
138	0x3dc3d808	0.09562689
139	0x3e1b3b13	0.15159254
140	0xbca5876d	-0.020206178
141	0xbde516c9	-0.111859865
142	0x3da92f00	0.08260918
143	0xbe49ea1e	-0.19718215
144	0xbe680607	-0.22658549
145	0xbd8d71f9	-0.06906504
146	0xbdb77e94	-0.0895969
147	0xbe90355a	-0.28165704
148	0x3e2146f1	0.15749718
149	0x3e0ba33e	0.1363649
150	0xbd6f4919	-0.05841932
151	0xbdfc83a7	-0.12329798
152	0x3e10c7aa	0.14138666
153	0xbe3a3075	-0.18182547
154	0xbf016242	-0.50540555
155	0xbe9cb29b	-0.30605015
156	0x3ddc3ea2	0.10754134
157	0x3d849339	0.06473393
158	0x3d266a2d	0.0406286
159	0xbe892d92	-0.2679258
160	0x3de3e5ab	0.1112779
161	0x3d5e70b9	0.05430672
162	0x3dc65c65	0.096855916
163	0xbe5f906f	-0.21832441
164	0x3d5ff514	0.054677084
165	0x3d9167c8	0.07099873
166	0xbdc43313	-0.09580054
167	0x3dda1877	0.106491975
168	0x3e036e27	0.12834989
169	0xbe1c5997	-0.15268551
170	0xbe72fa63	-0.23728327
171	0xbdf07133	-0.11740341
172	0x3d8473d0	0.06467402
173	0xbe3ab528	-0.18233168
174	0xbe47783b	-0.19479458
175	0xbe8044f7	-0.25052616
176	0xbdf724fb	-0.120676
177	0xbe000e16	-0.12505373
178	0xbec9ab41	-0.3938847
179	0x3dae6424	0.08515194
180	0xbe3008a9	-0.17190804
181	0xbd47195a	-0.04860816
182	0x3da20d73	0.079127215
183	0xbe07cede	-0.13262507
184	0x3e14412b	0.14477985
185	0xbe01f718	-0.12691915
186	0x3cee3071	0.029075833
187	0xbe3dbcbf	-0.18529032
188	0x3dbfa638	0.093578756
189	0xbe380e99	-0.17974319
190	0x3d9c3ac8	0.07628399
191	0xbe5967c0	-0.21230984
192	0xbdeb1628	-0.11478835
193	0x3e008655	0.12551244
194	0xbe2f98a3	-0.1714807
195	0x3e083d07	0.1330453
196	0xbd98aa47	-0.07454353
197	0xbe7cb41e	-0.24678084
198	0xbdc3ee44	-0.0956693
199	0xbe5011e4	-0.20319325
200	0xbde5ec71	-0.11226738
201	0x3e1bddf7	0.15221392
202	0xbe5da663	-0.21645503
203	0xbe5033ed	-0.20332308
204	0x3dfa315d	0.122164465
205	0x3cb87be4	0.022520013
206	0x3ddba0cc	0.10724029
207	0x3e24eb27	0.16105329
208	0xbe74fb7e	-0.23924062
209	0xbe6ac454	-0.22926456
210	0x3daa2597	0.08307951
211	0x3d96a309	0.07355315
212	0xbda5fe7d	-0.081051804
213	0xbc788349	-0.01516802
214	0xbe43913f	-0.19098376
215	0xbea7103a	-0.32629567
216	0x3d0fa9a3	0.035073888
217	0xbe4c3210	-0.19940972
218	0x3e0629f5	0.13101943
219	0xbe2ba405	-0.16761787
220	0x3d9b72a5	0.07590226
221	0x3e401fd5	0.18762143
222	0xbe8c75e4	-0.27433693
223	0x3d62fe89	0.055418525
224	0x3dbc980f	0.092086904
225	0x3e12b68b	0.14327447
226	0x3dafa0a1	0.085755594
227	0x3df983e3	0.121833585
228	0x3e1fe234	0.15613633
229	0xbe75f8c6	-0.24020681
230	0xbddf3e95	-0.109006085
231	0xbd82f2a8	-0.06393939
232	0xbdb03ee2	-0.08605744
233	0x3db8d4b4	0.09024945
234	0xbe047491	-0.12935092
235	0x3dd83c60	0.105583906
236	0x3c59fd3d	0.013305006
237	0x3e1df5ab	0.15425746
238	0x3df7a298	0.12091559
239	0x3e0ec598	0.13942564
240	0xbe9ed03d	-0.31018248
241	0x3e110830	0.1416328
242	0xbe81e69e	-0.2537126
243	0xbe813881	-0.25238422
244	0x3e047eab	0.12938945
245	0xbde83322	-0.11337878
246	0xbe567649	-0.2094356
247	0xbdf44e5e	-0.1192901
248	0xbc6c749d	-0.0144321
249	0xbd9d7c35	-0.07689706
250	0xbe21735e	-0.15766665
251	0xbe6045a7	-0.2190157
252	0x3e1a962a	0.15096346
253	0xbbfae68c	-0.007656878
254	0x3d864e12	0.065578595
255	0xbe1c521b	-0.15265696

classifier.3.bias f4 [10]
0	0x3e8d82ff	0.27639005
1	0x3e9c34c7	0.30509016
2	0x3e45cb40	0.19315815
3	0x3bf462e9	0.00745808
4	0xbedebb15	-0.43502107
5	0xbecc9ffc	-0.39965808
6	0xbe38344f	-0.17988704
7	0xbe881194	-0.2657591
8	0x3d5cb2a6	0.05388131
9	0x3ecea706	0.40361804
